<?xml version="1.0" ?>
<net name="retinanet-tf" version="10">
	<layers>
		<layer id="0" name="anchors_0/Reshape_2/Output_0/Data__const" type="Const" version="opset1">
			<data offset="0" size="72" shape="1,9,4" element_type="f16"/>
			<output>
				<port id="0" precision="FP16" names="anchors_0/Reshape_2:0">
					<dim>1</dim>
					<dim>9</dim>
					<dim>4</dim>
				</port>
			</output>
		</layer>
		<layer id="1" name="anchors_0/arange/start/Output_0/Data__const" type="Const" version="opset1">
			<data offset="72" size="4" shape="" element_type="i32"/>
			<output>
				<port id="0" precision="I32" names="anchors_0/arange/start:0"/>
			</output>
		</layer>
		<layer id="2" name="input_1" type="Parameter" version="opset1">
			<data shape="1,3,1333,1333" element_type="f16"/>
			<output>
				<port id="0" precision="FP16" names="input_1:0">
					<dim>1</dim>
					<dim>3</dim>
					<dim>1333</dim>
					<dim>1333</dim>
				</port>
			</output>
		</layer>
		<layer id="3" name="input_1/mean_input_port_1/value10474_const" type="Const" version="opset1">
			<data offset="76" size="6" shape="1,3,1,1" element_type="f16"/>
			<output>
				<port id="0" precision="FP16">
					<dim>1</dim>
					<dim>3</dim>
					<dim>1</dim>
					<dim>1</dim>
				</port>
			</output>
		</layer>
		<layer id="4" name="input_1/mean" type="Add" version="opset1">
			<data auto_broadcast="numpy"/>
			<input>
				<port id="0">
					<dim>1</dim>
					<dim>3</dim>
					<dim>1333</dim>
					<dim>1333</dim>
				</port>
				<port id="1">
					<dim>1</dim>
					<dim>3</dim>
					<dim>1</dim>
					<dim>1</dim>
				</port>
			</input>
			<output>
				<port id="2" precision="FP16">
					<dim>1</dim>
					<dim>3</dim>
					<dim>1333</dim>
					<dim>1333</dim>
				</port>
			</output>
		</layer>
		<layer id="5" name="conv1/convolution/Transpose39595_const" type="Const" version="opset1">
			<data offset="82" size="18816" shape="64,3,7,7" element_type="f16"/>
			<output>
				<port id="0" precision="FP16" names="conv1/kernel/read:0">
					<dim>64</dim>
					<dim>3</dim>
					<dim>7</dim>
					<dim>7</dim>
				</port>
			</output>
		</layer>
		<layer id="6" name="conv1/convolution" type="Convolution" version="opset1">
			<data auto_pad="explicit" strides="2,2" dilations="1,1" pads_begin="3,3" pads_end="3,3"/>
			<input>
				<port id="0">
					<dim>1</dim>
					<dim>3</dim>
					<dim>1333</dim>
					<dim>1333</dim>
				</port>
				<port id="1">
					<dim>64</dim>
					<dim>3</dim>
					<dim>7</dim>
					<dim>7</dim>
				</port>
			</input>
			<output>
				<port id="2" precision="FP16">
					<dim>1</dim>
					<dim>64</dim>
					<dim>667</dim>
					<dim>667</dim>
				</port>
			</output>
		</layer>
		<layer id="7" name="data_add_2952730485/EltwiseUnsqueeze30929_const" type="Const" version="opset1">
			<data offset="18898" size="128" shape="1,64,1,1" element_type="f16"/>
			<output>
				<port id="0" precision="FP16">
					<dim>1</dim>
					<dim>64</dim>
					<dim>1</dim>
					<dim>1</dim>
				</port>
			</output>
		</layer>
		<layer id="8" name="bn_conv1/FusedBatchNorm/variance/Fused_Add_" type="Add" version="opset1">
			<data auto_broadcast="numpy"/>
			<input>
				<port id="0">
					<dim>1</dim>
					<dim>64</dim>
					<dim>667</dim>
					<dim>667</dim>
				</port>
				<port id="1">
					<dim>1</dim>
					<dim>64</dim>
					<dim>1</dim>
					<dim>1</dim>
				</port>
			</input>
			<output>
				<port id="2" precision="FP16" names="bn_conv1/FusedBatchNorm:0">
					<dim>1</dim>
					<dim>64</dim>
					<dim>667</dim>
					<dim>667</dim>
				</port>
			</output>
		</layer>
		<layer id="9" name="conv1_relu/Relu" type="ReLU" version="opset1">
			<input>
				<port id="0">
					<dim>1</dim>
					<dim>64</dim>
					<dim>667</dim>
					<dim>667</dim>
				</port>
			</input>
			<output>
				<port id="1" precision="FP16" names="conv1_relu/Relu:0">
					<dim>1</dim>
					<dim>64</dim>
					<dim>667</dim>
					<dim>667</dim>
				</port>
			</output>
		</layer>
		<layer id="10" name="pool1/MaxPool" type="MaxPool" version="opset1">
			<data strides="2,2" kernel="3,3" pads_begin="1,1" pads_end="1,1" auto_pad="same_upper"/>
			<input>
				<port id="0">
					<dim>1</dim>
					<dim>64</dim>
					<dim>667</dim>
					<dim>667</dim>
				</port>
			</input>
			<output>
				<port id="1" precision="FP16" names="pool1/MaxPool:0">
					<dim>1</dim>
					<dim>64</dim>
					<dim>334</dim>
					<dim>334</dim>
				</port>
			</output>
		</layer>
		<layer id="11" name="res2a_branch2a/convolution/Transpose39599_const" type="Const" version="opset1">
			<data offset="19026" size="8192" shape="64,64,1,1" element_type="f16"/>
			<output>
				<port id="0" precision="FP16" names="res2a_branch2a/kernel/read:0">
					<dim>64</dim>
					<dim>64</dim>
					<dim>1</dim>
					<dim>1</dim>
				</port>
			</output>
		</layer>
		<layer id="12" name="res2a_branch2a/convolution" type="Convolution" version="opset1">
			<data auto_pad="valid" strides="1,1" dilations="1,1" pads_begin="0,0" pads_end="0,0"/>
			<input>
				<port id="0">
					<dim>1</dim>
					<dim>64</dim>
					<dim>334</dim>
					<dim>334</dim>
				</port>
				<port id="1">
					<dim>64</dim>
					<dim>64</dim>
					<dim>1</dim>
					<dim>1</dim>
				</port>
			</input>
			<output>
				<port id="2" precision="FP16">
					<dim>1</dim>
					<dim>64</dim>
					<dim>334</dim>
					<dim>334</dim>
				</port>
			</output>
		</layer>
		<layer id="13" name="data_add_295382954330489/EltwiseUnsqueeze30945_const" type="Const" version="opset1">
			<data offset="27218" size="128" shape="1,64,1,1" element_type="f16"/>
			<output>
				<port id="0" precision="FP16">
					<dim>1</dim>
					<dim>64</dim>
					<dim>1</dim>
					<dim>1</dim>
				</port>
			</output>
		</layer>
		<layer id="14" name="bn2a_branch2a/FusedBatchNorm/variance/Fused_Add_" type="Add" version="opset1">
			<data auto_broadcast="numpy"/>
			<input>
				<port id="0">
					<dim>1</dim>
					<dim>64</dim>
					<dim>334</dim>
					<dim>334</dim>
				</port>
				<port id="1">
					<dim>1</dim>
					<dim>64</dim>
					<dim>1</dim>
					<dim>1</dim>
				</port>
			</input>
			<output>
				<port id="2" precision="FP16" names="bn2a_branch2a/FusedBatchNorm:0">
					<dim>1</dim>
					<dim>64</dim>
					<dim>334</dim>
					<dim>334</dim>
				</port>
			</output>
		</layer>
		<layer id="15" name="res2a_branch2a_relu/Relu" type="ReLU" version="opset1">
			<input>
				<port id="0">
					<dim>1</dim>
					<dim>64</dim>
					<dim>334</dim>
					<dim>334</dim>
				</port>
			</input>
			<output>
				<port id="1" precision="FP16" names="res2a_branch2a_relu/Relu:0">
					<dim>1</dim>
					<dim>64</dim>
					<dim>334</dim>
					<dim>334</dim>
				</port>
			</output>
		</layer>
		<layer id="16" name="res2a_branch2b/convolution/Transpose39603_const" type="Const" version="opset1">
			<data offset="27346" size="73728" shape="64,64,3,3" element_type="f16"/>
			<output>
				<port id="0" precision="FP16" names="res2a_branch2b/kernel/read:0">
					<dim>64</dim>
					<dim>64</dim>
					<dim>3</dim>
					<dim>3</dim>
				</port>
			</output>
		</layer>
		<layer id="17" name="res2a_branch2b/convolution" type="Convolution" version="opset1">
			<data auto_pad="explicit" strides="1,1" dilations="1,1" pads_begin="1,1" pads_end="1,1"/>
			<input>
				<port id="0">
					<dim>1</dim>
					<dim>64</dim>
					<dim>334</dim>
					<dim>334</dim>
				</port>
				<port id="1">
					<dim>64</dim>
					<dim>64</dim>
					<dim>3</dim>
					<dim>3</dim>
				</port>
			</input>
			<output>
				<port id="2" precision="FP16">
					<dim>1</dim>
					<dim>64</dim>
					<dim>334</dim>
					<dim>334</dim>
				</port>
			</output>
		</layer>
		<layer id="18" name="data_add_295462955130491/EltwiseUnsqueeze30953_const" type="Const" version="opset1">
			<data offset="101074" size="128" shape="1,64,1,1" element_type="f16"/>
			<output>
				<port id="0" precision="FP16">
					<dim>1</dim>
					<dim>64</dim>
					<dim>1</dim>
					<dim>1</dim>
				</port>
			</output>
		</layer>
		<layer id="19" name="bn2a_branch2b/FusedBatchNorm/variance/Fused_Add_" type="Add" version="opset1">
			<data auto_broadcast="numpy"/>
			<input>
				<port id="0">
					<dim>1</dim>
					<dim>64</dim>
					<dim>334</dim>
					<dim>334</dim>
				</port>
				<port id="1">
					<dim>1</dim>
					<dim>64</dim>
					<dim>1</dim>
					<dim>1</dim>
				</port>
			</input>
			<output>
				<port id="2" precision="FP16" names="bn2a_branch2b/FusedBatchNorm:0">
					<dim>1</dim>
					<dim>64</dim>
					<dim>334</dim>
					<dim>334</dim>
				</port>
			</output>
		</layer>
		<layer id="20" name="res2a_branch2b_relu/Relu" type="ReLU" version="opset1">
			<input>
				<port id="0">
					<dim>1</dim>
					<dim>64</dim>
					<dim>334</dim>
					<dim>334</dim>
				</port>
			</input>
			<output>
				<port id="1" precision="FP16" names="res2a_branch2b_relu/Relu:0">
					<dim>1</dim>
					<dim>64</dim>
					<dim>334</dim>
					<dim>334</dim>
				</port>
			</output>
		</layer>
		<layer id="21" name="res2a_branch2c/convolution/Transpose39607_const" type="Const" version="opset1">
			<data offset="101202" size="32768" shape="256,64,1,1" element_type="f16"/>
			<output>
				<port id="0" precision="FP16" names="res2a_branch2c/kernel/read:0">
					<dim>256</dim>
					<dim>64</dim>
					<dim>1</dim>
					<dim>1</dim>
				</port>
			</output>
		</layer>
		<layer id="22" name="res2a_branch2c/convolution" type="Convolution" version="opset1">
			<data auto_pad="valid" strides="1,1" dilations="1,1" pads_begin="0,0" pads_end="0,0"/>
			<input>
				<port id="0">
					<dim>1</dim>
					<dim>64</dim>
					<dim>334</dim>
					<dim>334</dim>
				</port>
				<port id="1">
					<dim>256</dim>
					<dim>64</dim>
					<dim>1</dim>
					<dim>1</dim>
				</port>
			</input>
			<output>
				<port id="2" precision="FP16">
					<dim>1</dim>
					<dim>256</dim>
					<dim>334</dim>
					<dim>334</dim>
				</port>
			</output>
		</layer>
		<layer id="23" name="data_add_295542955930493/EltwiseUnsqueeze30961_const" type="Const" version="opset1">
			<data offset="133970" size="512" shape="1,256,1,1" element_type="f16"/>
			<output>
				<port id="0" precision="FP16">
					<dim>1</dim>
					<dim>256</dim>
					<dim>1</dim>
					<dim>1</dim>
				</port>
			</output>
		</layer>
		<layer id="24" name="bn2a_branch2c/FusedBatchNorm/variance/Fused_Add_" type="Add" version="opset1">
			<data auto_broadcast="numpy"/>
			<input>
				<port id="0">
					<dim>1</dim>
					<dim>256</dim>
					<dim>334</dim>
					<dim>334</dim>
				</port>
				<port id="1">
					<dim>1</dim>
					<dim>256</dim>
					<dim>1</dim>
					<dim>1</dim>
				</port>
			</input>
			<output>
				<port id="2" precision="FP16" names="bn2a_branch2c/FusedBatchNorm:0">
					<dim>1</dim>
					<dim>256</dim>
					<dim>334</dim>
					<dim>334</dim>
				</port>
			</output>
		</layer>
		<layer id="25" name="res2a_branch1/convolution/Transpose39611_const" type="Const" version="opset1">
			<data offset="134482" size="32768" shape="256,64,1,1" element_type="f16"/>
			<output>
				<port id="0" precision="FP16" names="res2a_branch1/kernel/read:0">
					<dim>256</dim>
					<dim>64</dim>
					<dim>1</dim>
					<dim>1</dim>
				</port>
			</output>
		</layer>
		<layer id="26" name="res2a_branch1/convolution" type="Convolution" version="opset1">
			<data auto_pad="valid" strides="1,1" dilations="1,1" pads_begin="0,0" pads_end="0,0"/>
			<input>
				<port id="0">
					<dim>1</dim>
					<dim>64</dim>
					<dim>334</dim>
					<dim>334</dim>
				</port>
				<port id="1">
					<dim>256</dim>
					<dim>64</dim>
					<dim>1</dim>
					<dim>1</dim>
				</port>
			</input>
			<output>
				<port id="2" precision="FP16">
					<dim>1</dim>
					<dim>256</dim>
					<dim>334</dim>
					<dim>334</dim>
				</port>
			</output>
		</layer>
		<layer id="27" name="data_add_295302953530487/EltwiseUnsqueeze30937_const" type="Const" version="opset1">
			<data offset="167250" size="512" shape="1,256,1,1" element_type="f16"/>
			<output>
				<port id="0" precision="FP16">
					<dim>1</dim>
					<dim>256</dim>
					<dim>1</dim>
					<dim>1</dim>
				</port>
			</output>
		</layer>
		<layer id="28" name="bn2a_branch1/FusedBatchNorm/variance/Fused_Add_" type="Add" version="opset1">
			<data auto_broadcast="numpy"/>
			<input>
				<port id="0">
					<dim>1</dim>
					<dim>256</dim>
					<dim>334</dim>
					<dim>334</dim>
				</port>
				<port id="1">
					<dim>1</dim>
					<dim>256</dim>
					<dim>1</dim>
					<dim>1</dim>
				</port>
			</input>
			<output>
				<port id="2" precision="FP16" names="bn2a_branch1/FusedBatchNorm:0">
					<dim>1</dim>
					<dim>256</dim>
					<dim>334</dim>
					<dim>334</dim>
				</port>
			</output>
		</layer>
		<layer id="29" name="res2a/add" type="Add" version="opset1">
			<data auto_broadcast="numpy"/>
			<input>
				<port id="0">
					<dim>1</dim>
					<dim>256</dim>
					<dim>334</dim>
					<dim>334</dim>
				</port>
				<port id="1">
					<dim>1</dim>
					<dim>256</dim>
					<dim>334</dim>
					<dim>334</dim>
				</port>
			</input>
			<output>
				<port id="2" precision="FP16" names="res2a/add:0">
					<dim>1</dim>
					<dim>256</dim>
					<dim>334</dim>
					<dim>334</dim>
				</port>
			</output>
		</layer>
		<layer id="30" name="res2a_relu/Relu" type="ReLU" version="opset1">
			<input>
				<port id="0">
					<dim>1</dim>
					<dim>256</dim>
					<dim>334</dim>
					<dim>334</dim>
				</port>
			</input>
			<output>
				<port id="1" precision="FP16" names="res2a_relu/Relu:0">
					<dim>1</dim>
					<dim>256</dim>
					<dim>334</dim>
					<dim>334</dim>
				</port>
			</output>
		</layer>
		<layer id="31" name="res2b_branch2a/convolution/Transpose39615_const" type="Const" version="opset1">
			<data offset="167762" size="32768" shape="64,256,1,1" element_type="f16"/>
			<output>
				<port id="0" precision="FP16" names="res2b_branch2a/kernel/read:0">
					<dim>64</dim>
					<dim>256</dim>
					<dim>1</dim>
					<dim>1</dim>
				</port>
			</output>
		</layer>
		<layer id="32" name="res2b_branch2a/convolution" type="Convolution" version="opset1">
			<data auto_pad="valid" strides="1,1" dilations="1,1" pads_begin="0,0" pads_end="0,0"/>
			<input>
				<port id="0">
					<dim>1</dim>
					<dim>256</dim>
					<dim>334</dim>
					<dim>334</dim>
				</port>
				<port id="1">
					<dim>64</dim>
					<dim>256</dim>
					<dim>1</dim>
					<dim>1</dim>
				</port>
			</input>
			<output>
				<port id="2" precision="FP16">
					<dim>1</dim>
					<dim>64</dim>
					<dim>334</dim>
					<dim>334</dim>
				</port>
			</output>
		</layer>
		<layer id="33" name="data_add_295622956730495/EltwiseUnsqueeze30969_const" type="Const" version="opset1">
			<data offset="200530" size="128" shape="1,64,1,1" element_type="f16"/>
			<output>
				<port id="0" precision="FP16">
					<dim>1</dim>
					<dim>64</dim>
					<dim>1</dim>
					<dim>1</dim>
				</port>
			</output>
		</layer>
		<layer id="34" name="bn2b_branch2a/FusedBatchNorm/variance/Fused_Add_" type="Add" version="opset1">
			<data auto_broadcast="numpy"/>
			<input>
				<port id="0">
					<dim>1</dim>
					<dim>64</dim>
					<dim>334</dim>
					<dim>334</dim>
				</port>
				<port id="1">
					<dim>1</dim>
					<dim>64</dim>
					<dim>1</dim>
					<dim>1</dim>
				</port>
			</input>
			<output>
				<port id="2" precision="FP16" names="bn2b_branch2a/FusedBatchNorm:0">
					<dim>1</dim>
					<dim>64</dim>
					<dim>334</dim>
					<dim>334</dim>
				</port>
			</output>
		</layer>
		<layer id="35" name="res2b_branch2a_relu/Relu" type="ReLU" version="opset1">
			<input>
				<port id="0">
					<dim>1</dim>
					<dim>64</dim>
					<dim>334</dim>
					<dim>334</dim>
				</port>
			</input>
			<output>
				<port id="1" precision="FP16" names="res2b_branch2a_relu/Relu:0">
					<dim>1</dim>
					<dim>64</dim>
					<dim>334</dim>
					<dim>334</dim>
				</port>
			</output>
		</layer>
		<layer id="36" name="res2b_branch2b/convolution/Transpose39619_const" type="Const" version="opset1">
			<data offset="200658" size="73728" shape="64,64,3,3" element_type="f16"/>
			<output>
				<port id="0" precision="FP16" names="res2b_branch2b/kernel/read:0">
					<dim>64</dim>
					<dim>64</dim>
					<dim>3</dim>
					<dim>3</dim>
				</port>
			</output>
		</layer>
		<layer id="37" name="res2b_branch2b/convolution" type="Convolution" version="opset1">
			<data auto_pad="explicit" strides="1,1" dilations="1,1" pads_begin="1,1" pads_end="1,1"/>
			<input>
				<port id="0">
					<dim>1</dim>
					<dim>64</dim>
					<dim>334</dim>
					<dim>334</dim>
				</port>
				<port id="1">
					<dim>64</dim>
					<dim>64</dim>
					<dim>3</dim>
					<dim>3</dim>
				</port>
			</input>
			<output>
				<port id="2" precision="FP16">
					<dim>1</dim>
					<dim>64</dim>
					<dim>334</dim>
					<dim>334</dim>
				</port>
			</output>
		</layer>
		<layer id="38" name="data_add_295702957530497/EltwiseUnsqueeze30977_const" type="Const" version="opset1">
			<data offset="274386" size="128" shape="1,64,1,1" element_type="f16"/>
			<output>
				<port id="0" precision="FP16">
					<dim>1</dim>
					<dim>64</dim>
					<dim>1</dim>
					<dim>1</dim>
				</port>
			</output>
		</layer>
		<layer id="39" name="bn2b_branch2b/FusedBatchNorm/variance/Fused_Add_" type="Add" version="opset1">
			<data auto_broadcast="numpy"/>
			<input>
				<port id="0">
					<dim>1</dim>
					<dim>64</dim>
					<dim>334</dim>
					<dim>334</dim>
				</port>
				<port id="1">
					<dim>1</dim>
					<dim>64</dim>
					<dim>1</dim>
					<dim>1</dim>
				</port>
			</input>
			<output>
				<port id="2" precision="FP16" names="bn2b_branch2b/FusedBatchNorm:0">
					<dim>1</dim>
					<dim>64</dim>
					<dim>334</dim>
					<dim>334</dim>
				</port>
			</output>
		</layer>
		<layer id="40" name="res2b_branch2b_relu/Relu" type="ReLU" version="opset1">
			<input>
				<port id="0">
					<dim>1</dim>
					<dim>64</dim>
					<dim>334</dim>
					<dim>334</dim>
				</port>
			</input>
			<output>
				<port id="1" precision="FP16" names="res2b_branch2b_relu/Relu:0">
					<dim>1</dim>
					<dim>64</dim>
					<dim>334</dim>
					<dim>334</dim>
				</port>
			</output>
		</layer>
		<layer id="41" name="res2b_branch2c/convolution/Transpose39623_const" type="Const" version="opset1">
			<data offset="274514" size="32768" shape="256,64,1,1" element_type="f16"/>
			<output>
				<port id="0" precision="FP16" names="res2b_branch2c/kernel/read:0">
					<dim>256</dim>
					<dim>64</dim>
					<dim>1</dim>
					<dim>1</dim>
				</port>
			</output>
		</layer>
		<layer id="42" name="res2b_branch2c/convolution" type="Convolution" version="opset1">
			<data auto_pad="valid" strides="1,1" dilations="1,1" pads_begin="0,0" pads_end="0,0"/>
			<input>
				<port id="0">
					<dim>1</dim>
					<dim>64</dim>
					<dim>334</dim>
					<dim>334</dim>
				</port>
				<port id="1">
					<dim>256</dim>
					<dim>64</dim>
					<dim>1</dim>
					<dim>1</dim>
				</port>
			</input>
			<output>
				<port id="2" precision="FP16">
					<dim>1</dim>
					<dim>256</dim>
					<dim>334</dim>
					<dim>334</dim>
				</port>
			</output>
		</layer>
		<layer id="43" name="data_add_295782958330499/EltwiseUnsqueeze30985_const" type="Const" version="opset1">
			<data offset="307282" size="512" shape="1,256,1,1" element_type="f16"/>
			<output>
				<port id="0" precision="FP16">
					<dim>1</dim>
					<dim>256</dim>
					<dim>1</dim>
					<dim>1</dim>
				</port>
			</output>
		</layer>
		<layer id="44" name="bn2b_branch2c/FusedBatchNorm/variance/Fused_Add_" type="Add" version="opset1">
			<data auto_broadcast="numpy"/>
			<input>
				<port id="0">
					<dim>1</dim>
					<dim>256</dim>
					<dim>334</dim>
					<dim>334</dim>
				</port>
				<port id="1">
					<dim>1</dim>
					<dim>256</dim>
					<dim>1</dim>
					<dim>1</dim>
				</port>
			</input>
			<output>
				<port id="2" precision="FP16" names="bn2b_branch2c/FusedBatchNorm:0">
					<dim>1</dim>
					<dim>256</dim>
					<dim>334</dim>
					<dim>334</dim>
				</port>
			</output>
		</layer>
		<layer id="45" name="res2b/add" type="Add" version="opset1">
			<data auto_broadcast="numpy"/>
			<input>
				<port id="0">
					<dim>1</dim>
					<dim>256</dim>
					<dim>334</dim>
					<dim>334</dim>
				</port>
				<port id="1">
					<dim>1</dim>
					<dim>256</dim>
					<dim>334</dim>
					<dim>334</dim>
				</port>
			</input>
			<output>
				<port id="2" precision="FP16" names="res2b/add:0">
					<dim>1</dim>
					<dim>256</dim>
					<dim>334</dim>
					<dim>334</dim>
				</port>
			</output>
		</layer>
		<layer id="46" name="res2b_relu/Relu" type="ReLU" version="opset1">
			<input>
				<port id="0">
					<dim>1</dim>
					<dim>256</dim>
					<dim>334</dim>
					<dim>334</dim>
				</port>
			</input>
			<output>
				<port id="1" precision="FP16" names="res2b_relu/Relu:0">
					<dim>1</dim>
					<dim>256</dim>
					<dim>334</dim>
					<dim>334</dim>
				</port>
			</output>
		</layer>
		<layer id="47" name="res2c_branch2a/convolution/Transpose39627_const" type="Const" version="opset1">
			<data offset="307794" size="32768" shape="64,256,1,1" element_type="f16"/>
			<output>
				<port id="0" precision="FP16" names="res2c_branch2a/kernel/read:0">
					<dim>64</dim>
					<dim>256</dim>
					<dim>1</dim>
					<dim>1</dim>
				</port>
			</output>
		</layer>
		<layer id="48" name="res2c_branch2a/convolution" type="Convolution" version="opset1">
			<data auto_pad="valid" strides="1,1" dilations="1,1" pads_begin="0,0" pads_end="0,0"/>
			<input>
				<port id="0">
					<dim>1</dim>
					<dim>256</dim>
					<dim>334</dim>
					<dim>334</dim>
				</port>
				<port id="1">
					<dim>64</dim>
					<dim>256</dim>
					<dim>1</dim>
					<dim>1</dim>
				</port>
			</input>
			<output>
				<port id="2" precision="FP16">
					<dim>1</dim>
					<dim>64</dim>
					<dim>334</dim>
					<dim>334</dim>
				</port>
			</output>
		</layer>
		<layer id="49" name="data_add_295862959130501/EltwiseUnsqueeze30993_const" type="Const" version="opset1">
			<data offset="340562" size="128" shape="1,64,1,1" element_type="f16"/>
			<output>
				<port id="0" precision="FP16">
					<dim>1</dim>
					<dim>64</dim>
					<dim>1</dim>
					<dim>1</dim>
				</port>
			</output>
		</layer>
		<layer id="50" name="bn2c_branch2a/FusedBatchNorm/variance/Fused_Add_" type="Add" version="opset1">
			<data auto_broadcast="numpy"/>
			<input>
				<port id="0">
					<dim>1</dim>
					<dim>64</dim>
					<dim>334</dim>
					<dim>334</dim>
				</port>
				<port id="1">
					<dim>1</dim>
					<dim>64</dim>
					<dim>1</dim>
					<dim>1</dim>
				</port>
			</input>
			<output>
				<port id="2" precision="FP16" names="bn2c_branch2a/FusedBatchNorm:0">
					<dim>1</dim>
					<dim>64</dim>
					<dim>334</dim>
					<dim>334</dim>
				</port>
			</output>
		</layer>
		<layer id="51" name="res2c_branch2a_relu/Relu" type="ReLU" version="opset1">
			<input>
				<port id="0">
					<dim>1</dim>
					<dim>64</dim>
					<dim>334</dim>
					<dim>334</dim>
				</port>
			</input>
			<output>
				<port id="1" precision="FP16" names="res2c_branch2a_relu/Relu:0">
					<dim>1</dim>
					<dim>64</dim>
					<dim>334</dim>
					<dim>334</dim>
				</port>
			</output>
		</layer>
		<layer id="52" name="res2c_branch2b/convolution/Transpose39631_const" type="Const" version="opset1">
			<data offset="340690" size="73728" shape="64,64,3,3" element_type="f16"/>
			<output>
				<port id="0" precision="FP16" names="res2c_branch2b/kernel/read:0">
					<dim>64</dim>
					<dim>64</dim>
					<dim>3</dim>
					<dim>3</dim>
				</port>
			</output>
		</layer>
		<layer id="53" name="res2c_branch2b/convolution" type="Convolution" version="opset1">
			<data auto_pad="explicit" strides="1,1" dilations="1,1" pads_begin="1,1" pads_end="1,1"/>
			<input>
				<port id="0">
					<dim>1</dim>
					<dim>64</dim>
					<dim>334</dim>
					<dim>334</dim>
				</port>
				<port id="1">
					<dim>64</dim>
					<dim>64</dim>
					<dim>3</dim>
					<dim>3</dim>
				</port>
			</input>
			<output>
				<port id="2" precision="FP16">
					<dim>1</dim>
					<dim>64</dim>
					<dim>334</dim>
					<dim>334</dim>
				</port>
			</output>
		</layer>
		<layer id="54" name="data_add_295942959930503/EltwiseUnsqueeze31001_const" type="Const" version="opset1">
			<data offset="414418" size="128" shape="1,64,1,1" element_type="f16"/>
			<output>
				<port id="0" precision="FP16">
					<dim>1</dim>
					<dim>64</dim>
					<dim>1</dim>
					<dim>1</dim>
				</port>
			</output>
		</layer>
		<layer id="55" name="bn2c_branch2b/FusedBatchNorm/variance/Fused_Add_" type="Add" version="opset1">
			<data auto_broadcast="numpy"/>
			<input>
				<port id="0">
					<dim>1</dim>
					<dim>64</dim>
					<dim>334</dim>
					<dim>334</dim>
				</port>
				<port id="1">
					<dim>1</dim>
					<dim>64</dim>
					<dim>1</dim>
					<dim>1</dim>
				</port>
			</input>
			<output>
				<port id="2" precision="FP16" names="bn2c_branch2b/FusedBatchNorm:0">
					<dim>1</dim>
					<dim>64</dim>
					<dim>334</dim>
					<dim>334</dim>
				</port>
			</output>
		</layer>
		<layer id="56" name="res2c_branch2b_relu/Relu" type="ReLU" version="opset1">
			<input>
				<port id="0">
					<dim>1</dim>
					<dim>64</dim>
					<dim>334</dim>
					<dim>334</dim>
				</port>
			</input>
			<output>
				<port id="1" precision="FP16" names="res2c_branch2b_relu/Relu:0">
					<dim>1</dim>
					<dim>64</dim>
					<dim>334</dim>
					<dim>334</dim>
				</port>
			</output>
		</layer>
		<layer id="57" name="res2c_branch2c/convolution/Transpose39635_const" type="Const" version="opset1">
			<data offset="414546" size="32768" shape="256,64,1,1" element_type="f16"/>
			<output>
				<port id="0" precision="FP16" names="res2c_branch2c/kernel/read:0">
					<dim>256</dim>
					<dim>64</dim>
					<dim>1</dim>
					<dim>1</dim>
				</port>
			</output>
		</layer>
		<layer id="58" name="res2c_branch2c/convolution" type="Convolution" version="opset1">
			<data auto_pad="valid" strides="1,1" dilations="1,1" pads_begin="0,0" pads_end="0,0"/>
			<input>
				<port id="0">
					<dim>1</dim>
					<dim>64</dim>
					<dim>334</dim>
					<dim>334</dim>
				</port>
				<port id="1">
					<dim>256</dim>
					<dim>64</dim>
					<dim>1</dim>
					<dim>1</dim>
				</port>
			</input>
			<output>
				<port id="2" precision="FP16">
					<dim>1</dim>
					<dim>256</dim>
					<dim>334</dim>
					<dim>334</dim>
				</port>
			</output>
		</layer>
		<layer id="59" name="data_add_296022960730505/EltwiseUnsqueeze31009_const" type="Const" version="opset1">
			<data offset="447314" size="512" shape="1,256,1,1" element_type="f16"/>
			<output>
				<port id="0" precision="FP16">
					<dim>1</dim>
					<dim>256</dim>
					<dim>1</dim>
					<dim>1</dim>
				</port>
			</output>
		</layer>
		<layer id="60" name="bn2c_branch2c/FusedBatchNorm/variance/Fused_Add_" type="Add" version="opset1">
			<data auto_broadcast="numpy"/>
			<input>
				<port id="0">
					<dim>1</dim>
					<dim>256</dim>
					<dim>334</dim>
					<dim>334</dim>
				</port>
				<port id="1">
					<dim>1</dim>
					<dim>256</dim>
					<dim>1</dim>
					<dim>1</dim>
				</port>
			</input>
			<output>
				<port id="2" precision="FP16" names="bn2c_branch2c/FusedBatchNorm:0">
					<dim>1</dim>
					<dim>256</dim>
					<dim>334</dim>
					<dim>334</dim>
				</port>
			</output>
		</layer>
		<layer id="61" name="res2c/add" type="Add" version="opset1">
			<data auto_broadcast="numpy"/>
			<input>
				<port id="0">
					<dim>1</dim>
					<dim>256</dim>
					<dim>334</dim>
					<dim>334</dim>
				</port>
				<port id="1">
					<dim>1</dim>
					<dim>256</dim>
					<dim>334</dim>
					<dim>334</dim>
				</port>
			</input>
			<output>
				<port id="2" precision="FP16" names="res2c/add:0">
					<dim>1</dim>
					<dim>256</dim>
					<dim>334</dim>
					<dim>334</dim>
				</port>
			</output>
		</layer>
		<layer id="62" name="res2c_relu/Relu" type="ReLU" version="opset1">
			<input>
				<port id="0">
					<dim>1</dim>
					<dim>256</dim>
					<dim>334</dim>
					<dim>334</dim>
				</port>
			</input>
			<output>
				<port id="1" precision="FP16" names="res2c_relu/Relu:0">
					<dim>1</dim>
					<dim>256</dim>
					<dim>334</dim>
					<dim>334</dim>
				</port>
			</output>
		</layer>
		<layer id="63" name="res3a_branch2a/convolution/Transpose39639_const" type="Const" version="opset1">
			<data offset="447826" size="65536" shape="128,256,1,1" element_type="f16"/>
			<output>
				<port id="0" precision="FP16" names="res3a_branch2a/kernel/read:0">
					<dim>128</dim>
					<dim>256</dim>
					<dim>1</dim>
					<dim>1</dim>
				</port>
			</output>
		</layer>
		<layer id="64" name="res3a_branch2a/convolution" type="Convolution" version="opset1">
			<data auto_pad="valid" strides="2,2" dilations="1,1" pads_begin="0,0" pads_end="0,0"/>
			<input>
				<port id="0">
					<dim>1</dim>
					<dim>256</dim>
					<dim>334</dim>
					<dim>334</dim>
				</port>
				<port id="1">
					<dim>128</dim>
					<dim>256</dim>
					<dim>1</dim>
					<dim>1</dim>
				</port>
			</input>
			<output>
				<port id="2" precision="FP16">
					<dim>1</dim>
					<dim>128</dim>
					<dim>167</dim>
					<dim>167</dim>
				</port>
			</output>
		</layer>
		<layer id="65" name="data_add_296182962330509/EltwiseUnsqueeze31025_const" type="Const" version="opset1">
			<data offset="513362" size="256" shape="1,128,1,1" element_type="f16"/>
			<output>
				<port id="0" precision="FP16">
					<dim>1</dim>
					<dim>128</dim>
					<dim>1</dim>
					<dim>1</dim>
				</port>
			</output>
		</layer>
		<layer id="66" name="bn3a_branch2a/FusedBatchNorm/variance/Fused_Add_" type="Add" version="opset1">
			<data auto_broadcast="numpy"/>
			<input>
				<port id="0">
					<dim>1</dim>
					<dim>128</dim>
					<dim>167</dim>
					<dim>167</dim>
				</port>
				<port id="1">
					<dim>1</dim>
					<dim>128</dim>
					<dim>1</dim>
					<dim>1</dim>
				</port>
			</input>
			<output>
				<port id="2" precision="FP16" names="bn3a_branch2a/FusedBatchNorm:0">
					<dim>1</dim>
					<dim>128</dim>
					<dim>167</dim>
					<dim>167</dim>
				</port>
			</output>
		</layer>
		<layer id="67" name="res3a_branch2a_relu/Relu" type="ReLU" version="opset1">
			<input>
				<port id="0">
					<dim>1</dim>
					<dim>128</dim>
					<dim>167</dim>
					<dim>167</dim>
				</port>
			</input>
			<output>
				<port id="1" precision="FP16" names="res3a_branch2a_relu/Relu:0">
					<dim>1</dim>
					<dim>128</dim>
					<dim>167</dim>
					<dim>167</dim>
				</port>
			</output>
		</layer>
		<layer id="68" name="res3a_branch2b/convolution/Transpose39643_const" type="Const" version="opset1">
			<data offset="513618" size="294912" shape="128,128,3,3" element_type="f16"/>
			<output>
				<port id="0" precision="FP16" names="res3a_branch2b/kernel/read:0">
					<dim>128</dim>
					<dim>128</dim>
					<dim>3</dim>
					<dim>3</dim>
				</port>
			</output>
		</layer>
		<layer id="69" name="res3a_branch2b/convolution" type="Convolution" version="opset1">
			<data auto_pad="explicit" strides="1,1" dilations="1,1" pads_begin="1,1" pads_end="1,1"/>
			<input>
				<port id="0">
					<dim>1</dim>
					<dim>128</dim>
					<dim>167</dim>
					<dim>167</dim>
				</port>
				<port id="1">
					<dim>128</dim>
					<dim>128</dim>
					<dim>3</dim>
					<dim>3</dim>
				</port>
			</input>
			<output>
				<port id="2" precision="FP16">
					<dim>1</dim>
					<dim>128</dim>
					<dim>167</dim>
					<dim>167</dim>
				</port>
			</output>
		</layer>
		<layer id="70" name="data_add_296262963130511/EltwiseUnsqueeze31033_const" type="Const" version="opset1">
			<data offset="808530" size="256" shape="1,128,1,1" element_type="f16"/>
			<output>
				<port id="0" precision="FP16">
					<dim>1</dim>
					<dim>128</dim>
					<dim>1</dim>
					<dim>1</dim>
				</port>
			</output>
		</layer>
		<layer id="71" name="bn3a_branch2b/FusedBatchNorm/variance/Fused_Add_" type="Add" version="opset1">
			<data auto_broadcast="numpy"/>
			<input>
				<port id="0">
					<dim>1</dim>
					<dim>128</dim>
					<dim>167</dim>
					<dim>167</dim>
				</port>
				<port id="1">
					<dim>1</dim>
					<dim>128</dim>
					<dim>1</dim>
					<dim>1</dim>
				</port>
			</input>
			<output>
				<port id="2" precision="FP16" names="bn3a_branch2b/FusedBatchNorm:0">
					<dim>1</dim>
					<dim>128</dim>
					<dim>167</dim>
					<dim>167</dim>
				</port>
			</output>
		</layer>
		<layer id="72" name="res3a_branch2b_relu/Relu" type="ReLU" version="opset1">
			<input>
				<port id="0">
					<dim>1</dim>
					<dim>128</dim>
					<dim>167</dim>
					<dim>167</dim>
				</port>
			</input>
			<output>
				<port id="1" precision="FP16" names="res3a_branch2b_relu/Relu:0">
					<dim>1</dim>
					<dim>128</dim>
					<dim>167</dim>
					<dim>167</dim>
				</port>
			</output>
		</layer>
		<layer id="73" name="res3a_branch2c/convolution/Transpose39647_const" type="Const" version="opset1">
			<data offset="808786" size="131072" shape="512,128,1,1" element_type="f16"/>
			<output>
				<port id="0" precision="FP16" names="res3a_branch2c/kernel/read:0">
					<dim>512</dim>
					<dim>128</dim>
					<dim>1</dim>
					<dim>1</dim>
				</port>
			</output>
		</layer>
		<layer id="74" name="res3a_branch2c/convolution" type="Convolution" version="opset1">
			<data auto_pad="valid" strides="1,1" dilations="1,1" pads_begin="0,0" pads_end="0,0"/>
			<input>
				<port id="0">
					<dim>1</dim>
					<dim>128</dim>
					<dim>167</dim>
					<dim>167</dim>
				</port>
				<port id="1">
					<dim>512</dim>
					<dim>128</dim>
					<dim>1</dim>
					<dim>1</dim>
				</port>
			</input>
			<output>
				<port id="2" precision="FP16">
					<dim>1</dim>
					<dim>512</dim>
					<dim>167</dim>
					<dim>167</dim>
				</port>
			</output>
		</layer>
		<layer id="75" name="data_add_296342963930513/EltwiseUnsqueeze31041_const" type="Const" version="opset1">
			<data offset="939858" size="1024" shape="1,512,1,1" element_type="f16"/>
			<output>
				<port id="0" precision="FP16">
					<dim>1</dim>
					<dim>512</dim>
					<dim>1</dim>
					<dim>1</dim>
				</port>
			</output>
		</layer>
		<layer id="76" name="bn3a_branch2c/FusedBatchNorm/variance/Fused_Add_" type="Add" version="opset1">
			<data auto_broadcast="numpy"/>
			<input>
				<port id="0">
					<dim>1</dim>
					<dim>512</dim>
					<dim>167</dim>
					<dim>167</dim>
				</port>
				<port id="1">
					<dim>1</dim>
					<dim>512</dim>
					<dim>1</dim>
					<dim>1</dim>
				</port>
			</input>
			<output>
				<port id="2" precision="FP16" names="bn3a_branch2c/FusedBatchNorm:0">
					<dim>1</dim>
					<dim>512</dim>
					<dim>167</dim>
					<dim>167</dim>
				</port>
			</output>
		</layer>
		<layer id="77" name="res3a_branch1/convolution/Transpose39651_const" type="Const" version="opset1">
			<data offset="940882" size="262144" shape="512,256,1,1" element_type="f16"/>
			<output>
				<port id="0" precision="FP16" names="res3a_branch1/kernel/read:0">
					<dim>512</dim>
					<dim>256</dim>
					<dim>1</dim>
					<dim>1</dim>
				</port>
			</output>
		</layer>
		<layer id="78" name="res3a_branch1/convolution" type="Convolution" version="opset1">
			<data auto_pad="valid" strides="2,2" dilations="1,1" pads_begin="0,0" pads_end="0,0"/>
			<input>
				<port id="0">
					<dim>1</dim>
					<dim>256</dim>
					<dim>334</dim>
					<dim>334</dim>
				</port>
				<port id="1">
					<dim>512</dim>
					<dim>256</dim>
					<dim>1</dim>
					<dim>1</dim>
				</port>
			</input>
			<output>
				<port id="2" precision="FP16">
					<dim>1</dim>
					<dim>512</dim>
					<dim>167</dim>
					<dim>167</dim>
				</port>
			</output>
		</layer>
		<layer id="79" name="data_add_296102961530507/EltwiseUnsqueeze31017_const" type="Const" version="opset1">
			<data offset="1203026" size="1024" shape="1,512,1,1" element_type="f16"/>
			<output>
				<port id="0" precision="FP16">
					<dim>1</dim>
					<dim>512</dim>
					<dim>1</dim>
					<dim>1</dim>
				</port>
			</output>
		</layer>
		<layer id="80" name="bn3a_branch1/FusedBatchNorm/variance/Fused_Add_" type="Add" version="opset1">
			<data auto_broadcast="numpy"/>
			<input>
				<port id="0">
					<dim>1</dim>
					<dim>512</dim>
					<dim>167</dim>
					<dim>167</dim>
				</port>
				<port id="1">
					<dim>1</dim>
					<dim>512</dim>
					<dim>1</dim>
					<dim>1</dim>
				</port>
			</input>
			<output>
				<port id="2" precision="FP16" names="bn3a_branch1/FusedBatchNorm:0">
					<dim>1</dim>
					<dim>512</dim>
					<dim>167</dim>
					<dim>167</dim>
				</port>
			</output>
		</layer>
		<layer id="81" name="res3a/add" type="Add" version="opset1">
			<data auto_broadcast="numpy"/>
			<input>
				<port id="0">
					<dim>1</dim>
					<dim>512</dim>
					<dim>167</dim>
					<dim>167</dim>
				</port>
				<port id="1">
					<dim>1</dim>
					<dim>512</dim>
					<dim>167</dim>
					<dim>167</dim>
				</port>
			</input>
			<output>
				<port id="2" precision="FP16" names="res3a/add:0">
					<dim>1</dim>
					<dim>512</dim>
					<dim>167</dim>
					<dim>167</dim>
				</port>
			</output>
		</layer>
		<layer id="82" name="res3a_relu/Relu" type="ReLU" version="opset1">
			<input>
				<port id="0">
					<dim>1</dim>
					<dim>512</dim>
					<dim>167</dim>
					<dim>167</dim>
				</port>
			</input>
			<output>
				<port id="1" precision="FP16" names="res3a_relu/Relu:0">
					<dim>1</dim>
					<dim>512</dim>
					<dim>167</dim>
					<dim>167</dim>
				</port>
			</output>
		</layer>
		<layer id="83" name="res3b_branch2a/convolution/Transpose39655_const" type="Const" version="opset1">
			<data offset="1204050" size="131072" shape="128,512,1,1" element_type="f16"/>
			<output>
				<port id="0" precision="FP16" names="res3b_branch2a/kernel/read:0">
					<dim>128</dim>
					<dim>512</dim>
					<dim>1</dim>
					<dim>1</dim>
				</port>
			</output>
		</layer>
		<layer id="84" name="res3b_branch2a/convolution" type="Convolution" version="opset1">
			<data auto_pad="valid" strides="1,1" dilations="1,1" pads_begin="0,0" pads_end="0,0"/>
			<input>
				<port id="0">
					<dim>1</dim>
					<dim>512</dim>
					<dim>167</dim>
					<dim>167</dim>
				</port>
				<port id="1">
					<dim>128</dim>
					<dim>512</dim>
					<dim>1</dim>
					<dim>1</dim>
				</port>
			</input>
			<output>
				<port id="2" precision="FP16">
					<dim>1</dim>
					<dim>128</dim>
					<dim>167</dim>
					<dim>167</dim>
				</port>
			</output>
		</layer>
		<layer id="85" name="data_add_296422964730515/EltwiseUnsqueeze31049_const" type="Const" version="opset1">
			<data offset="1335122" size="256" shape="1,128,1,1" element_type="f16"/>
			<output>
				<port id="0" precision="FP16">
					<dim>1</dim>
					<dim>128</dim>
					<dim>1</dim>
					<dim>1</dim>
				</port>
			</output>
		</layer>
		<layer id="86" name="bn3b_branch2a/FusedBatchNorm/variance/Fused_Add_" type="Add" version="opset1">
			<data auto_broadcast="numpy"/>
			<input>
				<port id="0">
					<dim>1</dim>
					<dim>128</dim>
					<dim>167</dim>
					<dim>167</dim>
				</port>
				<port id="1">
					<dim>1</dim>
					<dim>128</dim>
					<dim>1</dim>
					<dim>1</dim>
				</port>
			</input>
			<output>
				<port id="2" precision="FP16" names="bn3b_branch2a/FusedBatchNorm:0">
					<dim>1</dim>
					<dim>128</dim>
					<dim>167</dim>
					<dim>167</dim>
				</port>
			</output>
		</layer>
		<layer id="87" name="res3b_branch2a_relu/Relu" type="ReLU" version="opset1">
			<input>
				<port id="0">
					<dim>1</dim>
					<dim>128</dim>
					<dim>167</dim>
					<dim>167</dim>
				</port>
			</input>
			<output>
				<port id="1" precision="FP16" names="res3b_branch2a_relu/Relu:0">
					<dim>1</dim>
					<dim>128</dim>
					<dim>167</dim>
					<dim>167</dim>
				</port>
			</output>
		</layer>
		<layer id="88" name="res3b_branch2b/convolution/Transpose39659_const" type="Const" version="opset1">
			<data offset="1335378" size="294912" shape="128,128,3,3" element_type="f16"/>
			<output>
				<port id="0" precision="FP16" names="res3b_branch2b/kernel/read:0">
					<dim>128</dim>
					<dim>128</dim>
					<dim>3</dim>
					<dim>3</dim>
				</port>
			</output>
		</layer>
		<layer id="89" name="res3b_branch2b/convolution" type="Convolution" version="opset1">
			<data auto_pad="explicit" strides="1,1" dilations="1,1" pads_begin="1,1" pads_end="1,1"/>
			<input>
				<port id="0">
					<dim>1</dim>
					<dim>128</dim>
					<dim>167</dim>
					<dim>167</dim>
				</port>
				<port id="1">
					<dim>128</dim>
					<dim>128</dim>
					<dim>3</dim>
					<dim>3</dim>
				</port>
			</input>
			<output>
				<port id="2" precision="FP16">
					<dim>1</dim>
					<dim>128</dim>
					<dim>167</dim>
					<dim>167</dim>
				</port>
			</output>
		</layer>
		<layer id="90" name="data_add_296502965530517/EltwiseUnsqueeze31057_const" type="Const" version="opset1">
			<data offset="1630290" size="256" shape="1,128,1,1" element_type="f16"/>
			<output>
				<port id="0" precision="FP16">
					<dim>1</dim>
					<dim>128</dim>
					<dim>1</dim>
					<dim>1</dim>
				</port>
			</output>
		</layer>
		<layer id="91" name="bn3b_branch2b/FusedBatchNorm/variance/Fused_Add_" type="Add" version="opset1">
			<data auto_broadcast="numpy"/>
			<input>
				<port id="0">
					<dim>1</dim>
					<dim>128</dim>
					<dim>167</dim>
					<dim>167</dim>
				</port>
				<port id="1">
					<dim>1</dim>
					<dim>128</dim>
					<dim>1</dim>
					<dim>1</dim>
				</port>
			</input>
			<output>
				<port id="2" precision="FP16" names="bn3b_branch2b/FusedBatchNorm:0">
					<dim>1</dim>
					<dim>128</dim>
					<dim>167</dim>
					<dim>167</dim>
				</port>
			</output>
		</layer>
		<layer id="92" name="res3b_branch2b_relu/Relu" type="ReLU" version="opset1">
			<input>
				<port id="0">
					<dim>1</dim>
					<dim>128</dim>
					<dim>167</dim>
					<dim>167</dim>
				</port>
			</input>
			<output>
				<port id="1" precision="FP16" names="res3b_branch2b_relu/Relu:0">
					<dim>1</dim>
					<dim>128</dim>
					<dim>167</dim>
					<dim>167</dim>
				</port>
			</output>
		</layer>
		<layer id="93" name="res3b_branch2c/convolution/Transpose39663_const" type="Const" version="opset1">
			<data offset="1630546" size="131072" shape="512,128,1,1" element_type="f16"/>
			<output>
				<port id="0" precision="FP16" names="res3b_branch2c/kernel/read:0">
					<dim>512</dim>
					<dim>128</dim>
					<dim>1</dim>
					<dim>1</dim>
				</port>
			</output>
		</layer>
		<layer id="94" name="res3b_branch2c/convolution" type="Convolution" version="opset1">
			<data auto_pad="valid" strides="1,1" dilations="1,1" pads_begin="0,0" pads_end="0,0"/>
			<input>
				<port id="0">
					<dim>1</dim>
					<dim>128</dim>
					<dim>167</dim>
					<dim>167</dim>
				</port>
				<port id="1">
					<dim>512</dim>
					<dim>128</dim>
					<dim>1</dim>
					<dim>1</dim>
				</port>
			</input>
			<output>
				<port id="2" precision="FP16">
					<dim>1</dim>
					<dim>512</dim>
					<dim>167</dim>
					<dim>167</dim>
				</port>
			</output>
		</layer>
		<layer id="95" name="data_add_296582966330519/EltwiseUnsqueeze31065_const" type="Const" version="opset1">
			<data offset="1761618" size="1024" shape="1,512,1,1" element_type="f16"/>
			<output>
				<port id="0" precision="FP16">
					<dim>1</dim>
					<dim>512</dim>
					<dim>1</dim>
					<dim>1</dim>
				</port>
			</output>
		</layer>
		<layer id="96" name="bn3b_branch2c/FusedBatchNorm/variance/Fused_Add_" type="Add" version="opset1">
			<data auto_broadcast="numpy"/>
			<input>
				<port id="0">
					<dim>1</dim>
					<dim>512</dim>
					<dim>167</dim>
					<dim>167</dim>
				</port>
				<port id="1">
					<dim>1</dim>
					<dim>512</dim>
					<dim>1</dim>
					<dim>1</dim>
				</port>
			</input>
			<output>
				<port id="2" precision="FP16" names="bn3b_branch2c/FusedBatchNorm:0">
					<dim>1</dim>
					<dim>512</dim>
					<dim>167</dim>
					<dim>167</dim>
				</port>
			</output>
		</layer>
		<layer id="97" name="res3b/add" type="Add" version="opset1">
			<data auto_broadcast="numpy"/>
			<input>
				<port id="0">
					<dim>1</dim>
					<dim>512</dim>
					<dim>167</dim>
					<dim>167</dim>
				</port>
				<port id="1">
					<dim>1</dim>
					<dim>512</dim>
					<dim>167</dim>
					<dim>167</dim>
				</port>
			</input>
			<output>
				<port id="2" precision="FP16" names="res3b/add:0">
					<dim>1</dim>
					<dim>512</dim>
					<dim>167</dim>
					<dim>167</dim>
				</port>
			</output>
		</layer>
		<layer id="98" name="res3b_relu/Relu" type="ReLU" version="opset1">
			<input>
				<port id="0">
					<dim>1</dim>
					<dim>512</dim>
					<dim>167</dim>
					<dim>167</dim>
				</port>
			</input>
			<output>
				<port id="1" precision="FP16" names="res3b_relu/Relu:0">
					<dim>1</dim>
					<dim>512</dim>
					<dim>167</dim>
					<dim>167</dim>
				</port>
			</output>
		</layer>
		<layer id="99" name="res3c_branch2a/convolution/Transpose39667_const" type="Const" version="opset1">
			<data offset="1762642" size="131072" shape="128,512,1,1" element_type="f16"/>
			<output>
				<port id="0" precision="FP16" names="res3c_branch2a/kernel/read:0">
					<dim>128</dim>
					<dim>512</dim>
					<dim>1</dim>
					<dim>1</dim>
				</port>
			</output>
		</layer>
		<layer id="100" name="res3c_branch2a/convolution" type="Convolution" version="opset1">
			<data auto_pad="valid" strides="1,1" dilations="1,1" pads_begin="0,0" pads_end="0,0"/>
			<input>
				<port id="0">
					<dim>1</dim>
					<dim>512</dim>
					<dim>167</dim>
					<dim>167</dim>
				</port>
				<port id="1">
					<dim>128</dim>
					<dim>512</dim>
					<dim>1</dim>
					<dim>1</dim>
				</port>
			</input>
			<output>
				<port id="2" precision="FP16">
					<dim>1</dim>
					<dim>128</dim>
					<dim>167</dim>
					<dim>167</dim>
				</port>
			</output>
		</layer>
		<layer id="101" name="data_add_296662967130521/EltwiseUnsqueeze31073_const" type="Const" version="opset1">
			<data offset="1893714" size="256" shape="1,128,1,1" element_type="f16"/>
			<output>
				<port id="0" precision="FP16">
					<dim>1</dim>
					<dim>128</dim>
					<dim>1</dim>
					<dim>1</dim>
				</port>
			</output>
		</layer>
		<layer id="102" name="bn3c_branch2a/FusedBatchNorm/variance/Fused_Add_" type="Add" version="opset1">
			<data auto_broadcast="numpy"/>
			<input>
				<port id="0">
					<dim>1</dim>
					<dim>128</dim>
					<dim>167</dim>
					<dim>167</dim>
				</port>
				<port id="1">
					<dim>1</dim>
					<dim>128</dim>
					<dim>1</dim>
					<dim>1</dim>
				</port>
			</input>
			<output>
				<port id="2" precision="FP16" names="bn3c_branch2a/FusedBatchNorm:0">
					<dim>1</dim>
					<dim>128</dim>
					<dim>167</dim>
					<dim>167</dim>
				</port>
			</output>
		</layer>
		<layer id="103" name="res3c_branch2a_relu/Relu" type="ReLU" version="opset1">
			<input>
				<port id="0">
					<dim>1</dim>
					<dim>128</dim>
					<dim>167</dim>
					<dim>167</dim>
				</port>
			</input>
			<output>
				<port id="1" precision="FP16" names="res3c_branch2a_relu/Relu:0">
					<dim>1</dim>
					<dim>128</dim>
					<dim>167</dim>
					<dim>167</dim>
				</port>
			</output>
		</layer>
		<layer id="104" name="res3c_branch2b/convolution/Transpose39671_const" type="Const" version="opset1">
			<data offset="1893970" size="294912" shape="128,128,3,3" element_type="f16"/>
			<output>
				<port id="0" precision="FP16" names="res3c_branch2b/kernel/read:0">
					<dim>128</dim>
					<dim>128</dim>
					<dim>3</dim>
					<dim>3</dim>
				</port>
			</output>
		</layer>
		<layer id="105" name="res3c_branch2b/convolution" type="Convolution" version="opset1">
			<data auto_pad="explicit" strides="1,1" dilations="1,1" pads_begin="1,1" pads_end="1,1"/>
			<input>
				<port id="0">
					<dim>1</dim>
					<dim>128</dim>
					<dim>167</dim>
					<dim>167</dim>
				</port>
				<port id="1">
					<dim>128</dim>
					<dim>128</dim>
					<dim>3</dim>
					<dim>3</dim>
				</port>
			</input>
			<output>
				<port id="2" precision="FP16">
					<dim>1</dim>
					<dim>128</dim>
					<dim>167</dim>
					<dim>167</dim>
				</port>
			</output>
		</layer>
		<layer id="106" name="data_add_296742967930523/EltwiseUnsqueeze31081_const" type="Const" version="opset1">
			<data offset="2188882" size="256" shape="1,128,1,1" element_type="f16"/>
			<output>
				<port id="0" precision="FP16">
					<dim>1</dim>
					<dim>128</dim>
					<dim>1</dim>
					<dim>1</dim>
				</port>
			</output>
		</layer>
		<layer id="107" name="bn3c_branch2b/FusedBatchNorm/variance/Fused_Add_" type="Add" version="opset1">
			<data auto_broadcast="numpy"/>
			<input>
				<port id="0">
					<dim>1</dim>
					<dim>128</dim>
					<dim>167</dim>
					<dim>167</dim>
				</port>
				<port id="1">
					<dim>1</dim>
					<dim>128</dim>
					<dim>1</dim>
					<dim>1</dim>
				</port>
			</input>
			<output>
				<port id="2" precision="FP16" names="bn3c_branch2b/FusedBatchNorm:0">
					<dim>1</dim>
					<dim>128</dim>
					<dim>167</dim>
					<dim>167</dim>
				</port>
			</output>
		</layer>
		<layer id="108" name="res3c_branch2b_relu/Relu" type="ReLU" version="opset1">
			<input>
				<port id="0">
					<dim>1</dim>
					<dim>128</dim>
					<dim>167</dim>
					<dim>167</dim>
				</port>
			</input>
			<output>
				<port id="1" precision="FP16" names="res3c_branch2b_relu/Relu:0">
					<dim>1</dim>
					<dim>128</dim>
					<dim>167</dim>
					<dim>167</dim>
				</port>
			</output>
		</layer>
		<layer id="109" name="res3c_branch2c/convolution/Transpose39675_const" type="Const" version="opset1">
			<data offset="2189138" size="131072" shape="512,128,1,1" element_type="f16"/>
			<output>
				<port id="0" precision="FP16" names="res3c_branch2c/kernel/read:0">
					<dim>512</dim>
					<dim>128</dim>
					<dim>1</dim>
					<dim>1</dim>
				</port>
			</output>
		</layer>
		<layer id="110" name="res3c_branch2c/convolution" type="Convolution" version="opset1">
			<data auto_pad="valid" strides="1,1" dilations="1,1" pads_begin="0,0" pads_end="0,0"/>
			<input>
				<port id="0">
					<dim>1</dim>
					<dim>128</dim>
					<dim>167</dim>
					<dim>167</dim>
				</port>
				<port id="1">
					<dim>512</dim>
					<dim>128</dim>
					<dim>1</dim>
					<dim>1</dim>
				</port>
			</input>
			<output>
				<port id="2" precision="FP16">
					<dim>1</dim>
					<dim>512</dim>
					<dim>167</dim>
					<dim>167</dim>
				</port>
			</output>
		</layer>
		<layer id="111" name="data_add_296822968730525/EltwiseUnsqueeze31089_const" type="Const" version="opset1">
			<data offset="2320210" size="1024" shape="1,512,1,1" element_type="f16"/>
			<output>
				<port id="0" precision="FP16">
					<dim>1</dim>
					<dim>512</dim>
					<dim>1</dim>
					<dim>1</dim>
				</port>
			</output>
		</layer>
		<layer id="112" name="bn3c_branch2c/FusedBatchNorm/variance/Fused_Add_" type="Add" version="opset1">
			<data auto_broadcast="numpy"/>
			<input>
				<port id="0">
					<dim>1</dim>
					<dim>512</dim>
					<dim>167</dim>
					<dim>167</dim>
				</port>
				<port id="1">
					<dim>1</dim>
					<dim>512</dim>
					<dim>1</dim>
					<dim>1</dim>
				</port>
			</input>
			<output>
				<port id="2" precision="FP16" names="bn3c_branch2c/FusedBatchNorm:0">
					<dim>1</dim>
					<dim>512</dim>
					<dim>167</dim>
					<dim>167</dim>
				</port>
			</output>
		</layer>
		<layer id="113" name="res3c/add" type="Add" version="opset1">
			<data auto_broadcast="numpy"/>
			<input>
				<port id="0">
					<dim>1</dim>
					<dim>512</dim>
					<dim>167</dim>
					<dim>167</dim>
				</port>
				<port id="1">
					<dim>1</dim>
					<dim>512</dim>
					<dim>167</dim>
					<dim>167</dim>
				</port>
			</input>
			<output>
				<port id="2" precision="FP16" names="res3c/add:0">
					<dim>1</dim>
					<dim>512</dim>
					<dim>167</dim>
					<dim>167</dim>
				</port>
			</output>
		</layer>
		<layer id="114" name="res3c_relu/Relu" type="ReLU" version="opset1">
			<input>
				<port id="0">
					<dim>1</dim>
					<dim>512</dim>
					<dim>167</dim>
					<dim>167</dim>
				</port>
			</input>
			<output>
				<port id="1" precision="FP16" names="res3c_relu/Relu:0">
					<dim>1</dim>
					<dim>512</dim>
					<dim>167</dim>
					<dim>167</dim>
				</port>
			</output>
		</layer>
		<layer id="115" name="res3d_branch2a/convolution/Transpose39679_const" type="Const" version="opset1">
			<data offset="2321234" size="131072" shape="128,512,1,1" element_type="f16"/>
			<output>
				<port id="0" precision="FP16" names="res3d_branch2a/kernel/read:0">
					<dim>128</dim>
					<dim>512</dim>
					<dim>1</dim>
					<dim>1</dim>
				</port>
			</output>
		</layer>
		<layer id="116" name="res3d_branch2a/convolution" type="Convolution" version="opset1">
			<data auto_pad="valid" strides="1,1" dilations="1,1" pads_begin="0,0" pads_end="0,0"/>
			<input>
				<port id="0">
					<dim>1</dim>
					<dim>512</dim>
					<dim>167</dim>
					<dim>167</dim>
				</port>
				<port id="1">
					<dim>128</dim>
					<dim>512</dim>
					<dim>1</dim>
					<dim>1</dim>
				</port>
			</input>
			<output>
				<port id="2" precision="FP16">
					<dim>1</dim>
					<dim>128</dim>
					<dim>167</dim>
					<dim>167</dim>
				</port>
			</output>
		</layer>
		<layer id="117" name="data_add_296902969530527/EltwiseUnsqueeze31097_const" type="Const" version="opset1">
			<data offset="2452306" size="256" shape="1,128,1,1" element_type="f16"/>
			<output>
				<port id="0" precision="FP16">
					<dim>1</dim>
					<dim>128</dim>
					<dim>1</dim>
					<dim>1</dim>
				</port>
			</output>
		</layer>
		<layer id="118" name="bn3d_branch2a/FusedBatchNorm/variance/Fused_Add_" type="Add" version="opset1">
			<data auto_broadcast="numpy"/>
			<input>
				<port id="0">
					<dim>1</dim>
					<dim>128</dim>
					<dim>167</dim>
					<dim>167</dim>
				</port>
				<port id="1">
					<dim>1</dim>
					<dim>128</dim>
					<dim>1</dim>
					<dim>1</dim>
				</port>
			</input>
			<output>
				<port id="2" precision="FP16" names="bn3d_branch2a/FusedBatchNorm:0">
					<dim>1</dim>
					<dim>128</dim>
					<dim>167</dim>
					<dim>167</dim>
				</port>
			</output>
		</layer>
		<layer id="119" name="res3d_branch2a_relu/Relu" type="ReLU" version="opset1">
			<input>
				<port id="0">
					<dim>1</dim>
					<dim>128</dim>
					<dim>167</dim>
					<dim>167</dim>
				</port>
			</input>
			<output>
				<port id="1" precision="FP16" names="res3d_branch2a_relu/Relu:0">
					<dim>1</dim>
					<dim>128</dim>
					<dim>167</dim>
					<dim>167</dim>
				</port>
			</output>
		</layer>
		<layer id="120" name="res3d_branch2b/convolution/Transpose39683_const" type="Const" version="opset1">
			<data offset="2452562" size="294912" shape="128,128,3,3" element_type="f16"/>
			<output>
				<port id="0" precision="FP16" names="res3d_branch2b/kernel/read:0">
					<dim>128</dim>
					<dim>128</dim>
					<dim>3</dim>
					<dim>3</dim>
				</port>
			</output>
		</layer>
		<layer id="121" name="res3d_branch2b/convolution" type="Convolution" version="opset1">
			<data auto_pad="explicit" strides="1,1" dilations="1,1" pads_begin="1,1" pads_end="1,1"/>
			<input>
				<port id="0">
					<dim>1</dim>
					<dim>128</dim>
					<dim>167</dim>
					<dim>167</dim>
				</port>
				<port id="1">
					<dim>128</dim>
					<dim>128</dim>
					<dim>3</dim>
					<dim>3</dim>
				</port>
			</input>
			<output>
				<port id="2" precision="FP16">
					<dim>1</dim>
					<dim>128</dim>
					<dim>167</dim>
					<dim>167</dim>
				</port>
			</output>
		</layer>
		<layer id="122" name="data_add_296982970330529/EltwiseUnsqueeze31105_const" type="Const" version="opset1">
			<data offset="2747474" size="256" shape="1,128,1,1" element_type="f16"/>
			<output>
				<port id="0" precision="FP16">
					<dim>1</dim>
					<dim>128</dim>
					<dim>1</dim>
					<dim>1</dim>
				</port>
			</output>
		</layer>
		<layer id="123" name="bn3d_branch2b/FusedBatchNorm/variance/Fused_Add_" type="Add" version="opset1">
			<data auto_broadcast="numpy"/>
			<input>
				<port id="0">
					<dim>1</dim>
					<dim>128</dim>
					<dim>167</dim>
					<dim>167</dim>
				</port>
				<port id="1">
					<dim>1</dim>
					<dim>128</dim>
					<dim>1</dim>
					<dim>1</dim>
				</port>
			</input>
			<output>
				<port id="2" precision="FP16" names="bn3d_branch2b/FusedBatchNorm:0">
					<dim>1</dim>
					<dim>128</dim>
					<dim>167</dim>
					<dim>167</dim>
				</port>
			</output>
		</layer>
		<layer id="124" name="res3d_branch2b_relu/Relu" type="ReLU" version="opset1">
			<input>
				<port id="0">
					<dim>1</dim>
					<dim>128</dim>
					<dim>167</dim>
					<dim>167</dim>
				</port>
			</input>
			<output>
				<port id="1" precision="FP16" names="res3d_branch2b_relu/Relu:0">
					<dim>1</dim>
					<dim>128</dim>
					<dim>167</dim>
					<dim>167</dim>
				</port>
			</output>
		</layer>
		<layer id="125" name="res3d_branch2c/convolution/Transpose39687_const" type="Const" version="opset1">
			<data offset="2747730" size="131072" shape="512,128,1,1" element_type="f16"/>
			<output>
				<port id="0" precision="FP16" names="res3d_branch2c/kernel/read:0">
					<dim>512</dim>
					<dim>128</dim>
					<dim>1</dim>
					<dim>1</dim>
				</port>
			</output>
		</layer>
		<layer id="126" name="res3d_branch2c/convolution" type="Convolution" version="opset1">
			<data auto_pad="valid" strides="1,1" dilations="1,1" pads_begin="0,0" pads_end="0,0"/>
			<input>
				<port id="0">
					<dim>1</dim>
					<dim>128</dim>
					<dim>167</dim>
					<dim>167</dim>
				</port>
				<port id="1">
					<dim>512</dim>
					<dim>128</dim>
					<dim>1</dim>
					<dim>1</dim>
				</port>
			</input>
			<output>
				<port id="2" precision="FP16">
					<dim>1</dim>
					<dim>512</dim>
					<dim>167</dim>
					<dim>167</dim>
				</port>
			</output>
		</layer>
		<layer id="127" name="data_add_297062971130531/EltwiseUnsqueeze31113_const" type="Const" version="opset1">
			<data offset="2878802" size="1024" shape="1,512,1,1" element_type="f16"/>
			<output>
				<port id="0" precision="FP16">
					<dim>1</dim>
					<dim>512</dim>
					<dim>1</dim>
					<dim>1</dim>
				</port>
			</output>
		</layer>
		<layer id="128" name="bn3d_branch2c/FusedBatchNorm/variance/Fused_Add_" type="Add" version="opset1">
			<data auto_broadcast="numpy"/>
			<input>
				<port id="0">
					<dim>1</dim>
					<dim>512</dim>
					<dim>167</dim>
					<dim>167</dim>
				</port>
				<port id="1">
					<dim>1</dim>
					<dim>512</dim>
					<dim>1</dim>
					<dim>1</dim>
				</port>
			</input>
			<output>
				<port id="2" precision="FP16" names="bn3d_branch2c/FusedBatchNorm:0">
					<dim>1</dim>
					<dim>512</dim>
					<dim>167</dim>
					<dim>167</dim>
				</port>
			</output>
		</layer>
		<layer id="129" name="res3d/add" type="Add" version="opset1">
			<data auto_broadcast="numpy"/>
			<input>
				<port id="0">
					<dim>1</dim>
					<dim>512</dim>
					<dim>167</dim>
					<dim>167</dim>
				</port>
				<port id="1">
					<dim>1</dim>
					<dim>512</dim>
					<dim>167</dim>
					<dim>167</dim>
				</port>
			</input>
			<output>
				<port id="2" precision="FP16" names="res3d/add:0">
					<dim>1</dim>
					<dim>512</dim>
					<dim>167</dim>
					<dim>167</dim>
				</port>
			</output>
		</layer>
		<layer id="130" name="res3d_relu/Relu" type="ReLU" version="opset1">
			<input>
				<port id="0">
					<dim>1</dim>
					<dim>512</dim>
					<dim>167</dim>
					<dim>167</dim>
				</port>
			</input>
			<output>
				<port id="1" precision="FP16" names="res3d_relu/Relu:0">
					<dim>1</dim>
					<dim>512</dim>
					<dim>167</dim>
					<dim>167</dim>
				</port>
			</output>
		</layer>
		<layer id="131" name="res4a_branch2a/convolution/Transpose39691_const" type="Const" version="opset1">
			<data offset="2879826" size="262144" shape="256,512,1,1" element_type="f16"/>
			<output>
				<port id="0" precision="FP16" names="res4a_branch2a/kernel/read:0">
					<dim>256</dim>
					<dim>512</dim>
					<dim>1</dim>
					<dim>1</dim>
				</port>
			</output>
		</layer>
		<layer id="132" name="res4a_branch2a/convolution" type="Convolution" version="opset1">
			<data auto_pad="valid" strides="2,2" dilations="1,1" pads_begin="0,0" pads_end="0,0"/>
			<input>
				<port id="0">
					<dim>1</dim>
					<dim>512</dim>
					<dim>167</dim>
					<dim>167</dim>
				</port>
				<port id="1">
					<dim>256</dim>
					<dim>512</dim>
					<dim>1</dim>
					<dim>1</dim>
				</port>
			</input>
			<output>
				<port id="2" precision="FP16">
					<dim>1</dim>
					<dim>256</dim>
					<dim>84</dim>
					<dim>84</dim>
				</port>
			</output>
		</layer>
		<layer id="133" name="data_add_297222972730535/EltwiseUnsqueeze31129_const" type="Const" version="opset1">
			<data offset="3141970" size="512" shape="1,256,1,1" element_type="f16"/>
			<output>
				<port id="0" precision="FP16">
					<dim>1</dim>
					<dim>256</dim>
					<dim>1</dim>
					<dim>1</dim>
				</port>
			</output>
		</layer>
		<layer id="134" name="bn4a_branch2a/FusedBatchNorm/variance/Fused_Add_" type="Add" version="opset1">
			<data auto_broadcast="numpy"/>
			<input>
				<port id="0">
					<dim>1</dim>
					<dim>256</dim>
					<dim>84</dim>
					<dim>84</dim>
				</port>
				<port id="1">
					<dim>1</dim>
					<dim>256</dim>
					<dim>1</dim>
					<dim>1</dim>
				</port>
			</input>
			<output>
				<port id="2" precision="FP16" names="bn4a_branch2a/FusedBatchNorm:0">
					<dim>1</dim>
					<dim>256</dim>
					<dim>84</dim>
					<dim>84</dim>
				</port>
			</output>
		</layer>
		<layer id="135" name="res4a_branch2a_relu/Relu" type="ReLU" version="opset1">
			<input>
				<port id="0">
					<dim>1</dim>
					<dim>256</dim>
					<dim>84</dim>
					<dim>84</dim>
				</port>
			</input>
			<output>
				<port id="1" precision="FP16" names="res4a_branch2a_relu/Relu:0">
					<dim>1</dim>
					<dim>256</dim>
					<dim>84</dim>
					<dim>84</dim>
				</port>
			</output>
		</layer>
		<layer id="136" name="res4a_branch2b/convolution/Transpose39695_const" type="Const" version="opset1">
			<data offset="3142482" size="1179648" shape="256,256,3,3" element_type="f16"/>
			<output>
				<port id="0" precision="FP16" names="res4a_branch2b/kernel/read:0">
					<dim>256</dim>
					<dim>256</dim>
					<dim>3</dim>
					<dim>3</dim>
				</port>
			</output>
		</layer>
		<layer id="137" name="res4a_branch2b/convolution" type="Convolution" version="opset1">
			<data auto_pad="explicit" strides="1,1" dilations="1,1" pads_begin="1,1" pads_end="1,1"/>
			<input>
				<port id="0">
					<dim>1</dim>
					<dim>256</dim>
					<dim>84</dim>
					<dim>84</dim>
				</port>
				<port id="1">
					<dim>256</dim>
					<dim>256</dim>
					<dim>3</dim>
					<dim>3</dim>
				</port>
			</input>
			<output>
				<port id="2" precision="FP16">
					<dim>1</dim>
					<dim>256</dim>
					<dim>84</dim>
					<dim>84</dim>
				</port>
			</output>
		</layer>
		<layer id="138" name="data_add_297302973530537/EltwiseUnsqueeze31137_const" type="Const" version="opset1">
			<data offset="4322130" size="512" shape="1,256,1,1" element_type="f16"/>
			<output>
				<port id="0" precision="FP16">
					<dim>1</dim>
					<dim>256</dim>
					<dim>1</dim>
					<dim>1</dim>
				</port>
			</output>
		</layer>
		<layer id="139" name="bn4a_branch2b/FusedBatchNorm/variance/Fused_Add_" type="Add" version="opset1">
			<data auto_broadcast="numpy"/>
			<input>
				<port id="0">
					<dim>1</dim>
					<dim>256</dim>
					<dim>84</dim>
					<dim>84</dim>
				</port>
				<port id="1">
					<dim>1</dim>
					<dim>256</dim>
					<dim>1</dim>
					<dim>1</dim>
				</port>
			</input>
			<output>
				<port id="2" precision="FP16" names="bn4a_branch2b/FusedBatchNorm:0">
					<dim>1</dim>
					<dim>256</dim>
					<dim>84</dim>
					<dim>84</dim>
				</port>
			</output>
		</layer>
		<layer id="140" name="res4a_branch2b_relu/Relu" type="ReLU" version="opset1">
			<input>
				<port id="0">
					<dim>1</dim>
					<dim>256</dim>
					<dim>84</dim>
					<dim>84</dim>
				</port>
			</input>
			<output>
				<port id="1" precision="FP16" names="res4a_branch2b_relu/Relu:0">
					<dim>1</dim>
					<dim>256</dim>
					<dim>84</dim>
					<dim>84</dim>
				</port>
			</output>
		</layer>
		<layer id="141" name="res4a_branch2c/convolution/Transpose39699_const" type="Const" version="opset1">
			<data offset="4322642" size="524288" shape="1024,256,1,1" element_type="f16"/>
			<output>
				<port id="0" precision="FP16" names="res4a_branch2c/kernel/read:0">
					<dim>1024</dim>
					<dim>256</dim>
					<dim>1</dim>
					<dim>1</dim>
				</port>
			</output>
		</layer>
		<layer id="142" name="res4a_branch2c/convolution" type="Convolution" version="opset1">
			<data auto_pad="valid" strides="1,1" dilations="1,1" pads_begin="0,0" pads_end="0,0"/>
			<input>
				<port id="0">
					<dim>1</dim>
					<dim>256</dim>
					<dim>84</dim>
					<dim>84</dim>
				</port>
				<port id="1">
					<dim>1024</dim>
					<dim>256</dim>
					<dim>1</dim>
					<dim>1</dim>
				</port>
			</input>
			<output>
				<port id="2" precision="FP16">
					<dim>1</dim>
					<dim>1024</dim>
					<dim>84</dim>
					<dim>84</dim>
				</port>
			</output>
		</layer>
		<layer id="143" name="data_add_297382974330539/EltwiseUnsqueeze31145_const" type="Const" version="opset1">
			<data offset="4846930" size="2048" shape="1,1024,1,1" element_type="f16"/>
			<output>
				<port id="0" precision="FP16">
					<dim>1</dim>
					<dim>1024</dim>
					<dim>1</dim>
					<dim>1</dim>
				</port>
			</output>
		</layer>
		<layer id="144" name="bn4a_branch2c/FusedBatchNorm/variance/Fused_Add_" type="Add" version="opset1">
			<data auto_broadcast="numpy"/>
			<input>
				<port id="0">
					<dim>1</dim>
					<dim>1024</dim>
					<dim>84</dim>
					<dim>84</dim>
				</port>
				<port id="1">
					<dim>1</dim>
					<dim>1024</dim>
					<dim>1</dim>
					<dim>1</dim>
				</port>
			</input>
			<output>
				<port id="2" precision="FP16" names="bn4a_branch2c/FusedBatchNorm:0">
					<dim>1</dim>
					<dim>1024</dim>
					<dim>84</dim>
					<dim>84</dim>
				</port>
			</output>
		</layer>
		<layer id="145" name="res4a_branch1/convolution/Transpose39703_const" type="Const" version="opset1">
			<data offset="4848978" size="1048576" shape="1024,512,1,1" element_type="f16"/>
			<output>
				<port id="0" precision="FP16" names="res4a_branch1/kernel/read:0">
					<dim>1024</dim>
					<dim>512</dim>
					<dim>1</dim>
					<dim>1</dim>
				</port>
			</output>
		</layer>
		<layer id="146" name="res4a_branch1/convolution" type="Convolution" version="opset1">
			<data auto_pad="valid" strides="2,2" dilations="1,1" pads_begin="0,0" pads_end="0,0"/>
			<input>
				<port id="0">
					<dim>1</dim>
					<dim>512</dim>
					<dim>167</dim>
					<dim>167</dim>
				</port>
				<port id="1">
					<dim>1024</dim>
					<dim>512</dim>
					<dim>1</dim>
					<dim>1</dim>
				</port>
			</input>
			<output>
				<port id="2" precision="FP16">
					<dim>1</dim>
					<dim>1024</dim>
					<dim>84</dim>
					<dim>84</dim>
				</port>
			</output>
		</layer>
		<layer id="147" name="data_add_297142971930533/EltwiseUnsqueeze31121_const" type="Const" version="opset1">
			<data offset="5897554" size="2048" shape="1,1024,1,1" element_type="f16"/>
			<output>
				<port id="0" precision="FP16">
					<dim>1</dim>
					<dim>1024</dim>
					<dim>1</dim>
					<dim>1</dim>
				</port>
			</output>
		</layer>
		<layer id="148" name="bn4a_branch1/FusedBatchNorm/variance/Fused_Add_" type="Add" version="opset1">
			<data auto_broadcast="numpy"/>
			<input>
				<port id="0">
					<dim>1</dim>
					<dim>1024</dim>
					<dim>84</dim>
					<dim>84</dim>
				</port>
				<port id="1">
					<dim>1</dim>
					<dim>1024</dim>
					<dim>1</dim>
					<dim>1</dim>
				</port>
			</input>
			<output>
				<port id="2" precision="FP16" names="bn4a_branch1/FusedBatchNorm:0">
					<dim>1</dim>
					<dim>1024</dim>
					<dim>84</dim>
					<dim>84</dim>
				</port>
			</output>
		</layer>
		<layer id="149" name="res4a/add" type="Add" version="opset1">
			<data auto_broadcast="numpy"/>
			<input>
				<port id="0">
					<dim>1</dim>
					<dim>1024</dim>
					<dim>84</dim>
					<dim>84</dim>
				</port>
				<port id="1">
					<dim>1</dim>
					<dim>1024</dim>
					<dim>84</dim>
					<dim>84</dim>
				</port>
			</input>
			<output>
				<port id="2" precision="FP16" names="res4a/add:0">
					<dim>1</dim>
					<dim>1024</dim>
					<dim>84</dim>
					<dim>84</dim>
				</port>
			</output>
		</layer>
		<layer id="150" name="res4a_relu/Relu" type="ReLU" version="opset1">
			<input>
				<port id="0">
					<dim>1</dim>
					<dim>1024</dim>
					<dim>84</dim>
					<dim>84</dim>
				</port>
			</input>
			<output>
				<port id="1" precision="FP16" names="res4a_relu/Relu:0">
					<dim>1</dim>
					<dim>1024</dim>
					<dim>84</dim>
					<dim>84</dim>
				</port>
			</output>
		</layer>
		<layer id="151" name="res4b_branch2a/convolution/Transpose39707_const" type="Const" version="opset1">
			<data offset="5899602" size="524288" shape="256,1024,1,1" element_type="f16"/>
			<output>
				<port id="0" precision="FP16" names="res4b_branch2a/kernel/read:0">
					<dim>256</dim>
					<dim>1024</dim>
					<dim>1</dim>
					<dim>1</dim>
				</port>
			</output>
		</layer>
		<layer id="152" name="res4b_branch2a/convolution" type="Convolution" version="opset1">
			<data auto_pad="valid" strides="1,1" dilations="1,1" pads_begin="0,0" pads_end="0,0"/>
			<input>
				<port id="0">
					<dim>1</dim>
					<dim>1024</dim>
					<dim>84</dim>
					<dim>84</dim>
				</port>
				<port id="1">
					<dim>256</dim>
					<dim>1024</dim>
					<dim>1</dim>
					<dim>1</dim>
				</port>
			</input>
			<output>
				<port id="2" precision="FP16">
					<dim>1</dim>
					<dim>256</dim>
					<dim>84</dim>
					<dim>84</dim>
				</port>
			</output>
		</layer>
		<layer id="153" name="data_add_297462975130541/EltwiseUnsqueeze31153_const" type="Const" version="opset1">
			<data offset="6423890" size="512" shape="1,256,1,1" element_type="f16"/>
			<output>
				<port id="0" precision="FP16">
					<dim>1</dim>
					<dim>256</dim>
					<dim>1</dim>
					<dim>1</dim>
				</port>
			</output>
		</layer>
		<layer id="154" name="bn4b_branch2a/FusedBatchNorm/variance/Fused_Add_" type="Add" version="opset1">
			<data auto_broadcast="numpy"/>
			<input>
				<port id="0">
					<dim>1</dim>
					<dim>256</dim>
					<dim>84</dim>
					<dim>84</dim>
				</port>
				<port id="1">
					<dim>1</dim>
					<dim>256</dim>
					<dim>1</dim>
					<dim>1</dim>
				</port>
			</input>
			<output>
				<port id="2" precision="FP16" names="bn4b_branch2a/FusedBatchNorm:0">
					<dim>1</dim>
					<dim>256</dim>
					<dim>84</dim>
					<dim>84</dim>
				</port>
			</output>
		</layer>
		<layer id="155" name="res4b_branch2a_relu/Relu" type="ReLU" version="opset1">
			<input>
				<port id="0">
					<dim>1</dim>
					<dim>256</dim>
					<dim>84</dim>
					<dim>84</dim>
				</port>
			</input>
			<output>
				<port id="1" precision="FP16" names="res4b_branch2a_relu/Relu:0">
					<dim>1</dim>
					<dim>256</dim>
					<dim>84</dim>
					<dim>84</dim>
				</port>
			</output>
		</layer>
		<layer id="156" name="res4b_branch2b/convolution/Transpose39711_const" type="Const" version="opset1">
			<data offset="6424402" size="1179648" shape="256,256,3,3" element_type="f16"/>
			<output>
				<port id="0" precision="FP16" names="res4b_branch2b/kernel/read:0">
					<dim>256</dim>
					<dim>256</dim>
					<dim>3</dim>
					<dim>3</dim>
				</port>
			</output>
		</layer>
		<layer id="157" name="res4b_branch2b/convolution" type="Convolution" version="opset1">
			<data auto_pad="explicit" strides="1,1" dilations="1,1" pads_begin="1,1" pads_end="1,1"/>
			<input>
				<port id="0">
					<dim>1</dim>
					<dim>256</dim>
					<dim>84</dim>
					<dim>84</dim>
				</port>
				<port id="1">
					<dim>256</dim>
					<dim>256</dim>
					<dim>3</dim>
					<dim>3</dim>
				</port>
			</input>
			<output>
				<port id="2" precision="FP16">
					<dim>1</dim>
					<dim>256</dim>
					<dim>84</dim>
					<dim>84</dim>
				</port>
			</output>
		</layer>
		<layer id="158" name="data_add_297542975930543/EltwiseUnsqueeze31161_const" type="Const" version="opset1">
			<data offset="7604050" size="512" shape="1,256,1,1" element_type="f16"/>
			<output>
				<port id="0" precision="FP16">
					<dim>1</dim>
					<dim>256</dim>
					<dim>1</dim>
					<dim>1</dim>
				</port>
			</output>
		</layer>
		<layer id="159" name="bn4b_branch2b/FusedBatchNorm/variance/Fused_Add_" type="Add" version="opset1">
			<data auto_broadcast="numpy"/>
			<input>
				<port id="0">
					<dim>1</dim>
					<dim>256</dim>
					<dim>84</dim>
					<dim>84</dim>
				</port>
				<port id="1">
					<dim>1</dim>
					<dim>256</dim>
					<dim>1</dim>
					<dim>1</dim>
				</port>
			</input>
			<output>
				<port id="2" precision="FP16" names="bn4b_branch2b/FusedBatchNorm:0">
					<dim>1</dim>
					<dim>256</dim>
					<dim>84</dim>
					<dim>84</dim>
				</port>
			</output>
		</layer>
		<layer id="160" name="res4b_branch2b_relu/Relu" type="ReLU" version="opset1">
			<input>
				<port id="0">
					<dim>1</dim>
					<dim>256</dim>
					<dim>84</dim>
					<dim>84</dim>
				</port>
			</input>
			<output>
				<port id="1" precision="FP16" names="res4b_branch2b_relu/Relu:0">
					<dim>1</dim>
					<dim>256</dim>
					<dim>84</dim>
					<dim>84</dim>
				</port>
			</output>
		</layer>
		<layer id="161" name="res4b_branch2c/convolution/Transpose39715_const" type="Const" version="opset1">
			<data offset="7604562" size="524288" shape="1024,256,1,1" element_type="f16"/>
			<output>
				<port id="0" precision="FP16" names="res4b_branch2c/kernel/read:0">
					<dim>1024</dim>
					<dim>256</dim>
					<dim>1</dim>
					<dim>1</dim>
				</port>
			</output>
		</layer>
		<layer id="162" name="res4b_branch2c/convolution" type="Convolution" version="opset1">
			<data auto_pad="valid" strides="1,1" dilations="1,1" pads_begin="0,0" pads_end="0,0"/>
			<input>
				<port id="0">
					<dim>1</dim>
					<dim>256</dim>
					<dim>84</dim>
					<dim>84</dim>
				</port>
				<port id="1">
					<dim>1024</dim>
					<dim>256</dim>
					<dim>1</dim>
					<dim>1</dim>
				</port>
			</input>
			<output>
				<port id="2" precision="FP16">
					<dim>1</dim>
					<dim>1024</dim>
					<dim>84</dim>
					<dim>84</dim>
				</port>
			</output>
		</layer>
		<layer id="163" name="data_add_297622976730545/EltwiseUnsqueeze31169_const" type="Const" version="opset1">
			<data offset="8128850" size="2048" shape="1,1024,1,1" element_type="f16"/>
			<output>
				<port id="0" precision="FP16">
					<dim>1</dim>
					<dim>1024</dim>
					<dim>1</dim>
					<dim>1</dim>
				</port>
			</output>
		</layer>
		<layer id="164" name="bn4b_branch2c/FusedBatchNorm/variance/Fused_Add_" type="Add" version="opset1">
			<data auto_broadcast="numpy"/>
			<input>
				<port id="0">
					<dim>1</dim>
					<dim>1024</dim>
					<dim>84</dim>
					<dim>84</dim>
				</port>
				<port id="1">
					<dim>1</dim>
					<dim>1024</dim>
					<dim>1</dim>
					<dim>1</dim>
				</port>
			</input>
			<output>
				<port id="2" precision="FP16" names="bn4b_branch2c/FusedBatchNorm:0">
					<dim>1</dim>
					<dim>1024</dim>
					<dim>84</dim>
					<dim>84</dim>
				</port>
			</output>
		</layer>
		<layer id="165" name="res4b/add" type="Add" version="opset1">
			<data auto_broadcast="numpy"/>
			<input>
				<port id="0">
					<dim>1</dim>
					<dim>1024</dim>
					<dim>84</dim>
					<dim>84</dim>
				</port>
				<port id="1">
					<dim>1</dim>
					<dim>1024</dim>
					<dim>84</dim>
					<dim>84</dim>
				</port>
			</input>
			<output>
				<port id="2" precision="FP16" names="res4b/add:0">
					<dim>1</dim>
					<dim>1024</dim>
					<dim>84</dim>
					<dim>84</dim>
				</port>
			</output>
		</layer>
		<layer id="166" name="res4b_relu/Relu" type="ReLU" version="opset1">
			<input>
				<port id="0">
					<dim>1</dim>
					<dim>1024</dim>
					<dim>84</dim>
					<dim>84</dim>
				</port>
			</input>
			<output>
				<port id="1" precision="FP16" names="res4b_relu/Relu:0">
					<dim>1</dim>
					<dim>1024</dim>
					<dim>84</dim>
					<dim>84</dim>
				</port>
			</output>
		</layer>
		<layer id="167" name="res4c_branch2a/convolution/Transpose39719_const" type="Const" version="opset1">
			<data offset="8130898" size="524288" shape="256,1024,1,1" element_type="f16"/>
			<output>
				<port id="0" precision="FP16" names="res4c_branch2a/kernel/read:0">
					<dim>256</dim>
					<dim>1024</dim>
					<dim>1</dim>
					<dim>1</dim>
				</port>
			</output>
		</layer>
		<layer id="168" name="res4c_branch2a/convolution" type="Convolution" version="opset1">
			<data auto_pad="valid" strides="1,1" dilations="1,1" pads_begin="0,0" pads_end="0,0"/>
			<input>
				<port id="0">
					<dim>1</dim>
					<dim>1024</dim>
					<dim>84</dim>
					<dim>84</dim>
				</port>
				<port id="1">
					<dim>256</dim>
					<dim>1024</dim>
					<dim>1</dim>
					<dim>1</dim>
				</port>
			</input>
			<output>
				<port id="2" precision="FP16">
					<dim>1</dim>
					<dim>256</dim>
					<dim>84</dim>
					<dim>84</dim>
				</port>
			</output>
		</layer>
		<layer id="169" name="data_add_297702977530547/EltwiseUnsqueeze31177_const" type="Const" version="opset1">
			<data offset="8655186" size="512" shape="1,256,1,1" element_type="f16"/>
			<output>
				<port id="0" precision="FP16">
					<dim>1</dim>
					<dim>256</dim>
					<dim>1</dim>
					<dim>1</dim>
				</port>
			</output>
		</layer>
		<layer id="170" name="bn4c_branch2a/FusedBatchNorm/variance/Fused_Add_" type="Add" version="opset1">
			<data auto_broadcast="numpy"/>
			<input>
				<port id="0">
					<dim>1</dim>
					<dim>256</dim>
					<dim>84</dim>
					<dim>84</dim>
				</port>
				<port id="1">
					<dim>1</dim>
					<dim>256</dim>
					<dim>1</dim>
					<dim>1</dim>
				</port>
			</input>
			<output>
				<port id="2" precision="FP16" names="bn4c_branch2a/FusedBatchNorm:0">
					<dim>1</dim>
					<dim>256</dim>
					<dim>84</dim>
					<dim>84</dim>
				</port>
			</output>
		</layer>
		<layer id="171" name="res4c_branch2a_relu/Relu" type="ReLU" version="opset1">
			<input>
				<port id="0">
					<dim>1</dim>
					<dim>256</dim>
					<dim>84</dim>
					<dim>84</dim>
				</port>
			</input>
			<output>
				<port id="1" precision="FP16" names="res4c_branch2a_relu/Relu:0">
					<dim>1</dim>
					<dim>256</dim>
					<dim>84</dim>
					<dim>84</dim>
				</port>
			</output>
		</layer>
		<layer id="172" name="res4c_branch2b/convolution/Transpose39723_const" type="Const" version="opset1">
			<data offset="8655698" size="1179648" shape="256,256,3,3" element_type="f16"/>
			<output>
				<port id="0" precision="FP16" names="res4c_branch2b/kernel/read:0">
					<dim>256</dim>
					<dim>256</dim>
					<dim>3</dim>
					<dim>3</dim>
				</port>
			</output>
		</layer>
		<layer id="173" name="res4c_branch2b/convolution" type="Convolution" version="opset1">
			<data auto_pad="explicit" strides="1,1" dilations="1,1" pads_begin="1,1" pads_end="1,1"/>
			<input>
				<port id="0">
					<dim>1</dim>
					<dim>256</dim>
					<dim>84</dim>
					<dim>84</dim>
				</port>
				<port id="1">
					<dim>256</dim>
					<dim>256</dim>
					<dim>3</dim>
					<dim>3</dim>
				</port>
			</input>
			<output>
				<port id="2" precision="FP16">
					<dim>1</dim>
					<dim>256</dim>
					<dim>84</dim>
					<dim>84</dim>
				</port>
			</output>
		</layer>
		<layer id="174" name="data_add_297782978330549/EltwiseUnsqueeze31185_const" type="Const" version="opset1">
			<data offset="9835346" size="512" shape="1,256,1,1" element_type="f16"/>
			<output>
				<port id="0" precision="FP16">
					<dim>1</dim>
					<dim>256</dim>
					<dim>1</dim>
					<dim>1</dim>
				</port>
			</output>
		</layer>
		<layer id="175" name="bn4c_branch2b/FusedBatchNorm/variance/Fused_Add_" type="Add" version="opset1">
			<data auto_broadcast="numpy"/>
			<input>
				<port id="0">
					<dim>1</dim>
					<dim>256</dim>
					<dim>84</dim>
					<dim>84</dim>
				</port>
				<port id="1">
					<dim>1</dim>
					<dim>256</dim>
					<dim>1</dim>
					<dim>1</dim>
				</port>
			</input>
			<output>
				<port id="2" precision="FP16" names="bn4c_branch2b/FusedBatchNorm:0">
					<dim>1</dim>
					<dim>256</dim>
					<dim>84</dim>
					<dim>84</dim>
				</port>
			</output>
		</layer>
		<layer id="176" name="res4c_branch2b_relu/Relu" type="ReLU" version="opset1">
			<input>
				<port id="0">
					<dim>1</dim>
					<dim>256</dim>
					<dim>84</dim>
					<dim>84</dim>
				</port>
			</input>
			<output>
				<port id="1" precision="FP16" names="res4c_branch2b_relu/Relu:0">
					<dim>1</dim>
					<dim>256</dim>
					<dim>84</dim>
					<dim>84</dim>
				</port>
			</output>
		</layer>
		<layer id="177" name="res4c_branch2c/convolution/Transpose39727_const" type="Const" version="opset1">
			<data offset="9835858" size="524288" shape="1024,256,1,1" element_type="f16"/>
			<output>
				<port id="0" precision="FP16" names="res4c_branch2c/kernel/read:0">
					<dim>1024</dim>
					<dim>256</dim>
					<dim>1</dim>
					<dim>1</dim>
				</port>
			</output>
		</layer>
		<layer id="178" name="res4c_branch2c/convolution" type="Convolution" version="opset1">
			<data auto_pad="valid" strides="1,1" dilations="1,1" pads_begin="0,0" pads_end="0,0"/>
			<input>
				<port id="0">
					<dim>1</dim>
					<dim>256</dim>
					<dim>84</dim>
					<dim>84</dim>
				</port>
				<port id="1">
					<dim>1024</dim>
					<dim>256</dim>
					<dim>1</dim>
					<dim>1</dim>
				</port>
			</input>
			<output>
				<port id="2" precision="FP16">
					<dim>1</dim>
					<dim>1024</dim>
					<dim>84</dim>
					<dim>84</dim>
				</port>
			</output>
		</layer>
		<layer id="179" name="data_add_297862979130551/EltwiseUnsqueeze31193_const" type="Const" version="opset1">
			<data offset="10360146" size="2048" shape="1,1024,1,1" element_type="f16"/>
			<output>
				<port id="0" precision="FP16">
					<dim>1</dim>
					<dim>1024</dim>
					<dim>1</dim>
					<dim>1</dim>
				</port>
			</output>
		</layer>
		<layer id="180" name="bn4c_branch2c/FusedBatchNorm/variance/Fused_Add_" type="Add" version="opset1">
			<data auto_broadcast="numpy"/>
			<input>
				<port id="0">
					<dim>1</dim>
					<dim>1024</dim>
					<dim>84</dim>
					<dim>84</dim>
				</port>
				<port id="1">
					<dim>1</dim>
					<dim>1024</dim>
					<dim>1</dim>
					<dim>1</dim>
				</port>
			</input>
			<output>
				<port id="2" precision="FP16" names="bn4c_branch2c/FusedBatchNorm:0">
					<dim>1</dim>
					<dim>1024</dim>
					<dim>84</dim>
					<dim>84</dim>
				</port>
			</output>
		</layer>
		<layer id="181" name="res4c/add" type="Add" version="opset1">
			<data auto_broadcast="numpy"/>
			<input>
				<port id="0">
					<dim>1</dim>
					<dim>1024</dim>
					<dim>84</dim>
					<dim>84</dim>
				</port>
				<port id="1">
					<dim>1</dim>
					<dim>1024</dim>
					<dim>84</dim>
					<dim>84</dim>
				</port>
			</input>
			<output>
				<port id="2" precision="FP16" names="res4c/add:0">
					<dim>1</dim>
					<dim>1024</dim>
					<dim>84</dim>
					<dim>84</dim>
				</port>
			</output>
		</layer>
		<layer id="182" name="res4c_relu/Relu" type="ReLU" version="opset1">
			<input>
				<port id="0">
					<dim>1</dim>
					<dim>1024</dim>
					<dim>84</dim>
					<dim>84</dim>
				</port>
			</input>
			<output>
				<port id="1" precision="FP16" names="res4c_relu/Relu:0">
					<dim>1</dim>
					<dim>1024</dim>
					<dim>84</dim>
					<dim>84</dim>
				</port>
			</output>
		</layer>
		<layer id="183" name="res4d_branch2a/convolution/Transpose39731_const" type="Const" version="opset1">
			<data offset="10362194" size="524288" shape="256,1024,1,1" element_type="f16"/>
			<output>
				<port id="0" precision="FP16" names="res4d_branch2a/kernel/read:0">
					<dim>256</dim>
					<dim>1024</dim>
					<dim>1</dim>
					<dim>1</dim>
				</port>
			</output>
		</layer>
		<layer id="184" name="res4d_branch2a/convolution" type="Convolution" version="opset1">
			<data auto_pad="valid" strides="1,1" dilations="1,1" pads_begin="0,0" pads_end="0,0"/>
			<input>
				<port id="0">
					<dim>1</dim>
					<dim>1024</dim>
					<dim>84</dim>
					<dim>84</dim>
				</port>
				<port id="1">
					<dim>256</dim>
					<dim>1024</dim>
					<dim>1</dim>
					<dim>1</dim>
				</port>
			</input>
			<output>
				<port id="2" precision="FP16">
					<dim>1</dim>
					<dim>256</dim>
					<dim>84</dim>
					<dim>84</dim>
				</port>
			</output>
		</layer>
		<layer id="185" name="data_add_297942979930553/EltwiseUnsqueeze31201_const" type="Const" version="opset1">
			<data offset="10886482" size="512" shape="1,256,1,1" element_type="f16"/>
			<output>
				<port id="0" precision="FP16">
					<dim>1</dim>
					<dim>256</dim>
					<dim>1</dim>
					<dim>1</dim>
				</port>
			</output>
		</layer>
		<layer id="186" name="bn4d_branch2a/FusedBatchNorm/variance/Fused_Add_" type="Add" version="opset1">
			<data auto_broadcast="numpy"/>
			<input>
				<port id="0">
					<dim>1</dim>
					<dim>256</dim>
					<dim>84</dim>
					<dim>84</dim>
				</port>
				<port id="1">
					<dim>1</dim>
					<dim>256</dim>
					<dim>1</dim>
					<dim>1</dim>
				</port>
			</input>
			<output>
				<port id="2" precision="FP16" names="bn4d_branch2a/FusedBatchNorm:0">
					<dim>1</dim>
					<dim>256</dim>
					<dim>84</dim>
					<dim>84</dim>
				</port>
			</output>
		</layer>
		<layer id="187" name="res4d_branch2a_relu/Relu" type="ReLU" version="opset1">
			<input>
				<port id="0">
					<dim>1</dim>
					<dim>256</dim>
					<dim>84</dim>
					<dim>84</dim>
				</port>
			</input>
			<output>
				<port id="1" precision="FP16" names="res4d_branch2a_relu/Relu:0">
					<dim>1</dim>
					<dim>256</dim>
					<dim>84</dim>
					<dim>84</dim>
				</port>
			</output>
		</layer>
		<layer id="188" name="res4d_branch2b/convolution/Transpose39735_const" type="Const" version="opset1">
			<data offset="10886994" size="1179648" shape="256,256,3,3" element_type="f16"/>
			<output>
				<port id="0" precision="FP16" names="res4d_branch2b/kernel/read:0">
					<dim>256</dim>
					<dim>256</dim>
					<dim>3</dim>
					<dim>3</dim>
				</port>
			</output>
		</layer>
		<layer id="189" name="res4d_branch2b/convolution" type="Convolution" version="opset1">
			<data auto_pad="explicit" strides="1,1" dilations="1,1" pads_begin="1,1" pads_end="1,1"/>
			<input>
				<port id="0">
					<dim>1</dim>
					<dim>256</dim>
					<dim>84</dim>
					<dim>84</dim>
				</port>
				<port id="1">
					<dim>256</dim>
					<dim>256</dim>
					<dim>3</dim>
					<dim>3</dim>
				</port>
			</input>
			<output>
				<port id="2" precision="FP16">
					<dim>1</dim>
					<dim>256</dim>
					<dim>84</dim>
					<dim>84</dim>
				</port>
			</output>
		</layer>
		<layer id="190" name="data_add_298022980730555/EltwiseUnsqueeze31209_const" type="Const" version="opset1">
			<data offset="12066642" size="512" shape="1,256,1,1" element_type="f16"/>
			<output>
				<port id="0" precision="FP16">
					<dim>1</dim>
					<dim>256</dim>
					<dim>1</dim>
					<dim>1</dim>
				</port>
			</output>
		</layer>
		<layer id="191" name="bn4d_branch2b/FusedBatchNorm/variance/Fused_Add_" type="Add" version="opset1">
			<data auto_broadcast="numpy"/>
			<input>
				<port id="0">
					<dim>1</dim>
					<dim>256</dim>
					<dim>84</dim>
					<dim>84</dim>
				</port>
				<port id="1">
					<dim>1</dim>
					<dim>256</dim>
					<dim>1</dim>
					<dim>1</dim>
				</port>
			</input>
			<output>
				<port id="2" precision="FP16" names="bn4d_branch2b/FusedBatchNorm:0">
					<dim>1</dim>
					<dim>256</dim>
					<dim>84</dim>
					<dim>84</dim>
				</port>
			</output>
		</layer>
		<layer id="192" name="res4d_branch2b_relu/Relu" type="ReLU" version="opset1">
			<input>
				<port id="0">
					<dim>1</dim>
					<dim>256</dim>
					<dim>84</dim>
					<dim>84</dim>
				</port>
			</input>
			<output>
				<port id="1" precision="FP16" names="res4d_branch2b_relu/Relu:0">
					<dim>1</dim>
					<dim>256</dim>
					<dim>84</dim>
					<dim>84</dim>
				</port>
			</output>
		</layer>
		<layer id="193" name="res4d_branch2c/convolution/Transpose39739_const" type="Const" version="opset1">
			<data offset="12067154" size="524288" shape="1024,256,1,1" element_type="f16"/>
			<output>
				<port id="0" precision="FP16" names="res4d_branch2c/kernel/read:0">
					<dim>1024</dim>
					<dim>256</dim>
					<dim>1</dim>
					<dim>1</dim>
				</port>
			</output>
		</layer>
		<layer id="194" name="res4d_branch2c/convolution" type="Convolution" version="opset1">
			<data auto_pad="valid" strides="1,1" dilations="1,1" pads_begin="0,0" pads_end="0,0"/>
			<input>
				<port id="0">
					<dim>1</dim>
					<dim>256</dim>
					<dim>84</dim>
					<dim>84</dim>
				</port>
				<port id="1">
					<dim>1024</dim>
					<dim>256</dim>
					<dim>1</dim>
					<dim>1</dim>
				</port>
			</input>
			<output>
				<port id="2" precision="FP16">
					<dim>1</dim>
					<dim>1024</dim>
					<dim>84</dim>
					<dim>84</dim>
				</port>
			</output>
		</layer>
		<layer id="195" name="data_add_298102981530557/EltwiseUnsqueeze31217_const" type="Const" version="opset1">
			<data offset="12591442" size="2048" shape="1,1024,1,1" element_type="f16"/>
			<output>
				<port id="0" precision="FP16">
					<dim>1</dim>
					<dim>1024</dim>
					<dim>1</dim>
					<dim>1</dim>
				</port>
			</output>
		</layer>
		<layer id="196" name="bn4d_branch2c/FusedBatchNorm/variance/Fused_Add_" type="Add" version="opset1">
			<data auto_broadcast="numpy"/>
			<input>
				<port id="0">
					<dim>1</dim>
					<dim>1024</dim>
					<dim>84</dim>
					<dim>84</dim>
				</port>
				<port id="1">
					<dim>1</dim>
					<dim>1024</dim>
					<dim>1</dim>
					<dim>1</dim>
				</port>
			</input>
			<output>
				<port id="2" precision="FP16" names="bn4d_branch2c/FusedBatchNorm:0">
					<dim>1</dim>
					<dim>1024</dim>
					<dim>84</dim>
					<dim>84</dim>
				</port>
			</output>
		</layer>
		<layer id="197" name="res4d/add" type="Add" version="opset1">
			<data auto_broadcast="numpy"/>
			<input>
				<port id="0">
					<dim>1</dim>
					<dim>1024</dim>
					<dim>84</dim>
					<dim>84</dim>
				</port>
				<port id="1">
					<dim>1</dim>
					<dim>1024</dim>
					<dim>84</dim>
					<dim>84</dim>
				</port>
			</input>
			<output>
				<port id="2" precision="FP16" names="res4d/add:0">
					<dim>1</dim>
					<dim>1024</dim>
					<dim>84</dim>
					<dim>84</dim>
				</port>
			</output>
		</layer>
		<layer id="198" name="res4d_relu/Relu" type="ReLU" version="opset1">
			<input>
				<port id="0">
					<dim>1</dim>
					<dim>1024</dim>
					<dim>84</dim>
					<dim>84</dim>
				</port>
			</input>
			<output>
				<port id="1" precision="FP16" names="res4d_relu/Relu:0">
					<dim>1</dim>
					<dim>1024</dim>
					<dim>84</dim>
					<dim>84</dim>
				</port>
			</output>
		</layer>
		<layer id="199" name="res4e_branch2a/convolution/Transpose39743_const" type="Const" version="opset1">
			<data offset="12593490" size="524288" shape="256,1024,1,1" element_type="f16"/>
			<output>
				<port id="0" precision="FP16" names="res4e_branch2a/kernel/read:0">
					<dim>256</dim>
					<dim>1024</dim>
					<dim>1</dim>
					<dim>1</dim>
				</port>
			</output>
		</layer>
		<layer id="200" name="res4e_branch2a/convolution" type="Convolution" version="opset1">
			<data auto_pad="valid" strides="1,1" dilations="1,1" pads_begin="0,0" pads_end="0,0"/>
			<input>
				<port id="0">
					<dim>1</dim>
					<dim>1024</dim>
					<dim>84</dim>
					<dim>84</dim>
				</port>
				<port id="1">
					<dim>256</dim>
					<dim>1024</dim>
					<dim>1</dim>
					<dim>1</dim>
				</port>
			</input>
			<output>
				<port id="2" precision="FP16">
					<dim>1</dim>
					<dim>256</dim>
					<dim>84</dim>
					<dim>84</dim>
				</port>
			</output>
		</layer>
		<layer id="201" name="data_add_298182982330559/EltwiseUnsqueeze31225_const" type="Const" version="opset1">
			<data offset="13117778" size="512" shape="1,256,1,1" element_type="f16"/>
			<output>
				<port id="0" precision="FP16">
					<dim>1</dim>
					<dim>256</dim>
					<dim>1</dim>
					<dim>1</dim>
				</port>
			</output>
		</layer>
		<layer id="202" name="bn4e_branch2a/FusedBatchNorm/variance/Fused_Add_" type="Add" version="opset1">
			<data auto_broadcast="numpy"/>
			<input>
				<port id="0">
					<dim>1</dim>
					<dim>256</dim>
					<dim>84</dim>
					<dim>84</dim>
				</port>
				<port id="1">
					<dim>1</dim>
					<dim>256</dim>
					<dim>1</dim>
					<dim>1</dim>
				</port>
			</input>
			<output>
				<port id="2" precision="FP16" names="bn4e_branch2a/FusedBatchNorm:0">
					<dim>1</dim>
					<dim>256</dim>
					<dim>84</dim>
					<dim>84</dim>
				</port>
			</output>
		</layer>
		<layer id="203" name="res4e_branch2a_relu/Relu" type="ReLU" version="opset1">
			<input>
				<port id="0">
					<dim>1</dim>
					<dim>256</dim>
					<dim>84</dim>
					<dim>84</dim>
				</port>
			</input>
			<output>
				<port id="1" precision="FP16" names="res4e_branch2a_relu/Relu:0">
					<dim>1</dim>
					<dim>256</dim>
					<dim>84</dim>
					<dim>84</dim>
				</port>
			</output>
		</layer>
		<layer id="204" name="res4e_branch2b/convolution/Transpose39747_const" type="Const" version="opset1">
			<data offset="13118290" size="1179648" shape="256,256,3,3" element_type="f16"/>
			<output>
				<port id="0" precision="FP16" names="res4e_branch2b/kernel/read:0">
					<dim>256</dim>
					<dim>256</dim>
					<dim>3</dim>
					<dim>3</dim>
				</port>
			</output>
		</layer>
		<layer id="205" name="res4e_branch2b/convolution" type="Convolution" version="opset1">
			<data auto_pad="explicit" strides="1,1" dilations="1,1" pads_begin="1,1" pads_end="1,1"/>
			<input>
				<port id="0">
					<dim>1</dim>
					<dim>256</dim>
					<dim>84</dim>
					<dim>84</dim>
				</port>
				<port id="1">
					<dim>256</dim>
					<dim>256</dim>
					<dim>3</dim>
					<dim>3</dim>
				</port>
			</input>
			<output>
				<port id="2" precision="FP16">
					<dim>1</dim>
					<dim>256</dim>
					<dim>84</dim>
					<dim>84</dim>
				</port>
			</output>
		</layer>
		<layer id="206" name="data_add_298262983130561/EltwiseUnsqueeze31233_const" type="Const" version="opset1">
			<data offset="14297938" size="512" shape="1,256,1,1" element_type="f16"/>
			<output>
				<port id="0" precision="FP16">
					<dim>1</dim>
					<dim>256</dim>
					<dim>1</dim>
					<dim>1</dim>
				</port>
			</output>
		</layer>
		<layer id="207" name="bn4e_branch2b/FusedBatchNorm/variance/Fused_Add_" type="Add" version="opset1">
			<data auto_broadcast="numpy"/>
			<input>
				<port id="0">
					<dim>1</dim>
					<dim>256</dim>
					<dim>84</dim>
					<dim>84</dim>
				</port>
				<port id="1">
					<dim>1</dim>
					<dim>256</dim>
					<dim>1</dim>
					<dim>1</dim>
				</port>
			</input>
			<output>
				<port id="2" precision="FP16" names="bn4e_branch2b/FusedBatchNorm:0">
					<dim>1</dim>
					<dim>256</dim>
					<dim>84</dim>
					<dim>84</dim>
				</port>
			</output>
		</layer>
		<layer id="208" name="res4e_branch2b_relu/Relu" type="ReLU" version="opset1">
			<input>
				<port id="0">
					<dim>1</dim>
					<dim>256</dim>
					<dim>84</dim>
					<dim>84</dim>
				</port>
			</input>
			<output>
				<port id="1" precision="FP16" names="res4e_branch2b_relu/Relu:0">
					<dim>1</dim>
					<dim>256</dim>
					<dim>84</dim>
					<dim>84</dim>
				</port>
			</output>
		</layer>
		<layer id="209" name="res4e_branch2c/convolution/Transpose39751_const" type="Const" version="opset1">
			<data offset="14298450" size="524288" shape="1024,256,1,1" element_type="f16"/>
			<output>
				<port id="0" precision="FP16" names="res4e_branch2c/kernel/read:0">
					<dim>1024</dim>
					<dim>256</dim>
					<dim>1</dim>
					<dim>1</dim>
				</port>
			</output>
		</layer>
		<layer id="210" name="res4e_branch2c/convolution" type="Convolution" version="opset1">
			<data auto_pad="valid" strides="1,1" dilations="1,1" pads_begin="0,0" pads_end="0,0"/>
			<input>
				<port id="0">
					<dim>1</dim>
					<dim>256</dim>
					<dim>84</dim>
					<dim>84</dim>
				</port>
				<port id="1">
					<dim>1024</dim>
					<dim>256</dim>
					<dim>1</dim>
					<dim>1</dim>
				</port>
			</input>
			<output>
				<port id="2" precision="FP16">
					<dim>1</dim>
					<dim>1024</dim>
					<dim>84</dim>
					<dim>84</dim>
				</port>
			</output>
		</layer>
		<layer id="211" name="data_add_298342983930563/EltwiseUnsqueeze31241_const" type="Const" version="opset1">
			<data offset="14822738" size="2048" shape="1,1024,1,1" element_type="f16"/>
			<output>
				<port id="0" precision="FP16">
					<dim>1</dim>
					<dim>1024</dim>
					<dim>1</dim>
					<dim>1</dim>
				</port>
			</output>
		</layer>
		<layer id="212" name="bn4e_branch2c/FusedBatchNorm/variance/Fused_Add_" type="Add" version="opset1">
			<data auto_broadcast="numpy"/>
			<input>
				<port id="0">
					<dim>1</dim>
					<dim>1024</dim>
					<dim>84</dim>
					<dim>84</dim>
				</port>
				<port id="1">
					<dim>1</dim>
					<dim>1024</dim>
					<dim>1</dim>
					<dim>1</dim>
				</port>
			</input>
			<output>
				<port id="2" precision="FP16" names="bn4e_branch2c/FusedBatchNorm:0">
					<dim>1</dim>
					<dim>1024</dim>
					<dim>84</dim>
					<dim>84</dim>
				</port>
			</output>
		</layer>
		<layer id="213" name="res4e/add" type="Add" version="opset1">
			<data auto_broadcast="numpy"/>
			<input>
				<port id="0">
					<dim>1</dim>
					<dim>1024</dim>
					<dim>84</dim>
					<dim>84</dim>
				</port>
				<port id="1">
					<dim>1</dim>
					<dim>1024</dim>
					<dim>84</dim>
					<dim>84</dim>
				</port>
			</input>
			<output>
				<port id="2" precision="FP16" names="res4e/add:0">
					<dim>1</dim>
					<dim>1024</dim>
					<dim>84</dim>
					<dim>84</dim>
				</port>
			</output>
		</layer>
		<layer id="214" name="res4e_relu/Relu" type="ReLU" version="opset1">
			<input>
				<port id="0">
					<dim>1</dim>
					<dim>1024</dim>
					<dim>84</dim>
					<dim>84</dim>
				</port>
			</input>
			<output>
				<port id="1" precision="FP16" names="res4e_relu/Relu:0">
					<dim>1</dim>
					<dim>1024</dim>
					<dim>84</dim>
					<dim>84</dim>
				</port>
			</output>
		</layer>
		<layer id="215" name="res4f_branch2a/convolution/Transpose39755_const" type="Const" version="opset1">
			<data offset="14824786" size="524288" shape="256,1024,1,1" element_type="f16"/>
			<output>
				<port id="0" precision="FP16" names="res4f_branch2a/kernel/read:0">
					<dim>256</dim>
					<dim>1024</dim>
					<dim>1</dim>
					<dim>1</dim>
				</port>
			</output>
		</layer>
		<layer id="216" name="res4f_branch2a/convolution" type="Convolution" version="opset1">
			<data auto_pad="valid" strides="1,1" dilations="1,1" pads_begin="0,0" pads_end="0,0"/>
			<input>
				<port id="0">
					<dim>1</dim>
					<dim>1024</dim>
					<dim>84</dim>
					<dim>84</dim>
				</port>
				<port id="1">
					<dim>256</dim>
					<dim>1024</dim>
					<dim>1</dim>
					<dim>1</dim>
				</port>
			</input>
			<output>
				<port id="2" precision="FP16">
					<dim>1</dim>
					<dim>256</dim>
					<dim>84</dim>
					<dim>84</dim>
				</port>
			</output>
		</layer>
		<layer id="217" name="data_add_298422984730565/EltwiseUnsqueeze31249_const" type="Const" version="opset1">
			<data offset="15349074" size="512" shape="1,256,1,1" element_type="f16"/>
			<output>
				<port id="0" precision="FP16">
					<dim>1</dim>
					<dim>256</dim>
					<dim>1</dim>
					<dim>1</dim>
				</port>
			</output>
		</layer>
		<layer id="218" name="bn4f_branch2a/FusedBatchNorm/variance/Fused_Add_" type="Add" version="opset1">
			<data auto_broadcast="numpy"/>
			<input>
				<port id="0">
					<dim>1</dim>
					<dim>256</dim>
					<dim>84</dim>
					<dim>84</dim>
				</port>
				<port id="1">
					<dim>1</dim>
					<dim>256</dim>
					<dim>1</dim>
					<dim>1</dim>
				</port>
			</input>
			<output>
				<port id="2" precision="FP16" names="bn4f_branch2a/FusedBatchNorm:0">
					<dim>1</dim>
					<dim>256</dim>
					<dim>84</dim>
					<dim>84</dim>
				</port>
			</output>
		</layer>
		<layer id="219" name="res4f_branch2a_relu/Relu" type="ReLU" version="opset1">
			<input>
				<port id="0">
					<dim>1</dim>
					<dim>256</dim>
					<dim>84</dim>
					<dim>84</dim>
				</port>
			</input>
			<output>
				<port id="1" precision="FP16" names="res4f_branch2a_relu/Relu:0">
					<dim>1</dim>
					<dim>256</dim>
					<dim>84</dim>
					<dim>84</dim>
				</port>
			</output>
		</layer>
		<layer id="220" name="res4f_branch2b/convolution/Transpose39759_const" type="Const" version="opset1">
			<data offset="15349586" size="1179648" shape="256,256,3,3" element_type="f16"/>
			<output>
				<port id="0" precision="FP16" names="res4f_branch2b/kernel/read:0">
					<dim>256</dim>
					<dim>256</dim>
					<dim>3</dim>
					<dim>3</dim>
				</port>
			</output>
		</layer>
		<layer id="221" name="res4f_branch2b/convolution" type="Convolution" version="opset1">
			<data auto_pad="explicit" strides="1,1" dilations="1,1" pads_begin="1,1" pads_end="1,1"/>
			<input>
				<port id="0">
					<dim>1</dim>
					<dim>256</dim>
					<dim>84</dim>
					<dim>84</dim>
				</port>
				<port id="1">
					<dim>256</dim>
					<dim>256</dim>
					<dim>3</dim>
					<dim>3</dim>
				</port>
			</input>
			<output>
				<port id="2" precision="FP16">
					<dim>1</dim>
					<dim>256</dim>
					<dim>84</dim>
					<dim>84</dim>
				</port>
			</output>
		</layer>
		<layer id="222" name="data_add_298502985530567/EltwiseUnsqueeze31257_const" type="Const" version="opset1">
			<data offset="16529234" size="512" shape="1,256,1,1" element_type="f16"/>
			<output>
				<port id="0" precision="FP16">
					<dim>1</dim>
					<dim>256</dim>
					<dim>1</dim>
					<dim>1</dim>
				</port>
			</output>
		</layer>
		<layer id="223" name="bn4f_branch2b/FusedBatchNorm/variance/Fused_Add_" type="Add" version="opset1">
			<data auto_broadcast="numpy"/>
			<input>
				<port id="0">
					<dim>1</dim>
					<dim>256</dim>
					<dim>84</dim>
					<dim>84</dim>
				</port>
				<port id="1">
					<dim>1</dim>
					<dim>256</dim>
					<dim>1</dim>
					<dim>1</dim>
				</port>
			</input>
			<output>
				<port id="2" precision="FP16" names="bn4f_branch2b/FusedBatchNorm:0">
					<dim>1</dim>
					<dim>256</dim>
					<dim>84</dim>
					<dim>84</dim>
				</port>
			</output>
		</layer>
		<layer id="224" name="res4f_branch2b_relu/Relu" type="ReLU" version="opset1">
			<input>
				<port id="0">
					<dim>1</dim>
					<dim>256</dim>
					<dim>84</dim>
					<dim>84</dim>
				</port>
			</input>
			<output>
				<port id="1" precision="FP16" names="res4f_branch2b_relu/Relu:0">
					<dim>1</dim>
					<dim>256</dim>
					<dim>84</dim>
					<dim>84</dim>
				</port>
			</output>
		</layer>
		<layer id="225" name="res4f_branch2c/convolution/Transpose39763_const" type="Const" version="opset1">
			<data offset="16529746" size="524288" shape="1024,256,1,1" element_type="f16"/>
			<output>
				<port id="0" precision="FP16" names="res4f_branch2c/kernel/read:0">
					<dim>1024</dim>
					<dim>256</dim>
					<dim>1</dim>
					<dim>1</dim>
				</port>
			</output>
		</layer>
		<layer id="226" name="res4f_branch2c/convolution" type="Convolution" version="opset1">
			<data auto_pad="valid" strides="1,1" dilations="1,1" pads_begin="0,0" pads_end="0,0"/>
			<input>
				<port id="0">
					<dim>1</dim>
					<dim>256</dim>
					<dim>84</dim>
					<dim>84</dim>
				</port>
				<port id="1">
					<dim>1024</dim>
					<dim>256</dim>
					<dim>1</dim>
					<dim>1</dim>
				</port>
			</input>
			<output>
				<port id="2" precision="FP16">
					<dim>1</dim>
					<dim>1024</dim>
					<dim>84</dim>
					<dim>84</dim>
				</port>
			</output>
		</layer>
		<layer id="227" name="data_add_298582986330569/EltwiseUnsqueeze31265_const" type="Const" version="opset1">
			<data offset="17054034" size="2048" shape="1,1024,1,1" element_type="f16"/>
			<output>
				<port id="0" precision="FP16">
					<dim>1</dim>
					<dim>1024</dim>
					<dim>1</dim>
					<dim>1</dim>
				</port>
			</output>
		</layer>
		<layer id="228" name="bn4f_branch2c/FusedBatchNorm/variance/Fused_Add_" type="Add" version="opset1">
			<data auto_broadcast="numpy"/>
			<input>
				<port id="0">
					<dim>1</dim>
					<dim>1024</dim>
					<dim>84</dim>
					<dim>84</dim>
				</port>
				<port id="1">
					<dim>1</dim>
					<dim>1024</dim>
					<dim>1</dim>
					<dim>1</dim>
				</port>
			</input>
			<output>
				<port id="2" precision="FP16" names="bn4f_branch2c/FusedBatchNorm:0">
					<dim>1</dim>
					<dim>1024</dim>
					<dim>84</dim>
					<dim>84</dim>
				</port>
			</output>
		</layer>
		<layer id="229" name="res4f/add" type="Add" version="opset1">
			<data auto_broadcast="numpy"/>
			<input>
				<port id="0">
					<dim>1</dim>
					<dim>1024</dim>
					<dim>84</dim>
					<dim>84</dim>
				</port>
				<port id="1">
					<dim>1</dim>
					<dim>1024</dim>
					<dim>84</dim>
					<dim>84</dim>
				</port>
			</input>
			<output>
				<port id="2" precision="FP16" names="res4f/add:0">
					<dim>1</dim>
					<dim>1024</dim>
					<dim>84</dim>
					<dim>84</dim>
				</port>
			</output>
		</layer>
		<layer id="230" name="res4f_relu/Relu" type="ReLU" version="opset1">
			<input>
				<port id="0">
					<dim>1</dim>
					<dim>1024</dim>
					<dim>84</dim>
					<dim>84</dim>
				</port>
			</input>
			<output>
				<port id="1" precision="FP16" names="res4f_relu/Relu:0">
					<dim>1</dim>
					<dim>1024</dim>
					<dim>84</dim>
					<dim>84</dim>
				</port>
			</output>
		</layer>
		<layer id="231" name="res5a_branch2a/convolution/Transpose39767_const" type="Const" version="opset1">
			<data offset="17056082" size="1048576" shape="512,1024,1,1" element_type="f16"/>
			<output>
				<port id="0" precision="FP16" names="res5a_branch2a/kernel/read:0">
					<dim>512</dim>
					<dim>1024</dim>
					<dim>1</dim>
					<dim>1</dim>
				</port>
			</output>
		</layer>
		<layer id="232" name="res5a_branch2a/convolution" type="Convolution" version="opset1">
			<data auto_pad="valid" strides="2,2" dilations="1,1" pads_begin="0,0" pads_end="0,0"/>
			<input>
				<port id="0">
					<dim>1</dim>
					<dim>1024</dim>
					<dim>84</dim>
					<dim>84</dim>
				</port>
				<port id="1">
					<dim>512</dim>
					<dim>1024</dim>
					<dim>1</dim>
					<dim>1</dim>
				</port>
			</input>
			<output>
				<port id="2" precision="FP16">
					<dim>1</dim>
					<dim>512</dim>
					<dim>42</dim>
					<dim>42</dim>
				</port>
			</output>
		</layer>
		<layer id="233" name="data_add_298742987930573/EltwiseUnsqueeze31281_const" type="Const" version="opset1">
			<data offset="18104658" size="1024" shape="1,512,1,1" element_type="f16"/>
			<output>
				<port id="0" precision="FP16">
					<dim>1</dim>
					<dim>512</dim>
					<dim>1</dim>
					<dim>1</dim>
				</port>
			</output>
		</layer>
		<layer id="234" name="bn5a_branch2a/FusedBatchNorm/variance/Fused_Add_" type="Add" version="opset1">
			<data auto_broadcast="numpy"/>
			<input>
				<port id="0">
					<dim>1</dim>
					<dim>512</dim>
					<dim>42</dim>
					<dim>42</dim>
				</port>
				<port id="1">
					<dim>1</dim>
					<dim>512</dim>
					<dim>1</dim>
					<dim>1</dim>
				</port>
			</input>
			<output>
				<port id="2" precision="FP16" names="bn5a_branch2a/FusedBatchNorm:0">
					<dim>1</dim>
					<dim>512</dim>
					<dim>42</dim>
					<dim>42</dim>
				</port>
			</output>
		</layer>
		<layer id="235" name="res5a_branch2a_relu/Relu" type="ReLU" version="opset1">
			<input>
				<port id="0">
					<dim>1</dim>
					<dim>512</dim>
					<dim>42</dim>
					<dim>42</dim>
				</port>
			</input>
			<output>
				<port id="1" precision="FP16" names="res5a_branch2a_relu/Relu:0">
					<dim>1</dim>
					<dim>512</dim>
					<dim>42</dim>
					<dim>42</dim>
				</port>
			</output>
		</layer>
		<layer id="236" name="res5a_branch2b/convolution/Transpose39771_const" type="Const" version="opset1">
			<data offset="18105682" size="4718592" shape="512,512,3,3" element_type="f16"/>
			<output>
				<port id="0" precision="FP16" names="res5a_branch2b/kernel/read:0">
					<dim>512</dim>
					<dim>512</dim>
					<dim>3</dim>
					<dim>3</dim>
				</port>
			</output>
		</layer>
		<layer id="237" name="res5a_branch2b/convolution" type="Convolution" version="opset1">
			<data auto_pad="explicit" strides="1,1" dilations="1,1" pads_begin="1,1" pads_end="1,1"/>
			<input>
				<port id="0">
					<dim>1</dim>
					<dim>512</dim>
					<dim>42</dim>
					<dim>42</dim>
				</port>
				<port id="1">
					<dim>512</dim>
					<dim>512</dim>
					<dim>3</dim>
					<dim>3</dim>
				</port>
			</input>
			<output>
				<port id="2" precision="FP16">
					<dim>1</dim>
					<dim>512</dim>
					<dim>42</dim>
					<dim>42</dim>
				</port>
			</output>
		</layer>
		<layer id="238" name="data_add_298822988730575/EltwiseUnsqueeze31289_const" type="Const" version="opset1">
			<data offset="22824274" size="1024" shape="1,512,1,1" element_type="f16"/>
			<output>
				<port id="0" precision="FP16">
					<dim>1</dim>
					<dim>512</dim>
					<dim>1</dim>
					<dim>1</dim>
				</port>
			</output>
		</layer>
		<layer id="239" name="bn5a_branch2b/FusedBatchNorm/variance/Fused_Add_" type="Add" version="opset1">
			<data auto_broadcast="numpy"/>
			<input>
				<port id="0">
					<dim>1</dim>
					<dim>512</dim>
					<dim>42</dim>
					<dim>42</dim>
				</port>
				<port id="1">
					<dim>1</dim>
					<dim>512</dim>
					<dim>1</dim>
					<dim>1</dim>
				</port>
			</input>
			<output>
				<port id="2" precision="FP16" names="bn5a_branch2b/FusedBatchNorm:0">
					<dim>1</dim>
					<dim>512</dim>
					<dim>42</dim>
					<dim>42</dim>
				</port>
			</output>
		</layer>
		<layer id="240" name="res5a_branch2b_relu/Relu" type="ReLU" version="opset1">
			<input>
				<port id="0">
					<dim>1</dim>
					<dim>512</dim>
					<dim>42</dim>
					<dim>42</dim>
				</port>
			</input>
			<output>
				<port id="1" precision="FP16" names="res5a_branch2b_relu/Relu:0">
					<dim>1</dim>
					<dim>512</dim>
					<dim>42</dim>
					<dim>42</dim>
				</port>
			</output>
		</layer>
		<layer id="241" name="res5a_branch2c/convolution/Transpose39775_const" type="Const" version="opset1">
			<data offset="22825298" size="2097152" shape="2048,512,1,1" element_type="f16"/>
			<output>
				<port id="0" precision="FP16" names="res5a_branch2c/kernel/read:0">
					<dim>2048</dim>
					<dim>512</dim>
					<dim>1</dim>
					<dim>1</dim>
				</port>
			</output>
		</layer>
		<layer id="242" name="res5a_branch2c/convolution" type="Convolution" version="opset1">
			<data auto_pad="valid" strides="1,1" dilations="1,1" pads_begin="0,0" pads_end="0,0"/>
			<input>
				<port id="0">
					<dim>1</dim>
					<dim>512</dim>
					<dim>42</dim>
					<dim>42</dim>
				</port>
				<port id="1">
					<dim>2048</dim>
					<dim>512</dim>
					<dim>1</dim>
					<dim>1</dim>
				</port>
			</input>
			<output>
				<port id="2" precision="FP16">
					<dim>1</dim>
					<dim>2048</dim>
					<dim>42</dim>
					<dim>42</dim>
				</port>
			</output>
		</layer>
		<layer id="243" name="data_add_298902989530577/EltwiseUnsqueeze31297_const" type="Const" version="opset1">
			<data offset="24922450" size="4096" shape="1,2048,1,1" element_type="f16"/>
			<output>
				<port id="0" precision="FP16">
					<dim>1</dim>
					<dim>2048</dim>
					<dim>1</dim>
					<dim>1</dim>
				</port>
			</output>
		</layer>
		<layer id="244" name="bn5a_branch2c/FusedBatchNorm/variance/Fused_Add_" type="Add" version="opset1">
			<data auto_broadcast="numpy"/>
			<input>
				<port id="0">
					<dim>1</dim>
					<dim>2048</dim>
					<dim>42</dim>
					<dim>42</dim>
				</port>
				<port id="1">
					<dim>1</dim>
					<dim>2048</dim>
					<dim>1</dim>
					<dim>1</dim>
				</port>
			</input>
			<output>
				<port id="2" precision="FP16" names="bn5a_branch2c/FusedBatchNorm:0">
					<dim>1</dim>
					<dim>2048</dim>
					<dim>42</dim>
					<dim>42</dim>
				</port>
			</output>
		</layer>
		<layer id="245" name="res5a_branch1/convolution/Transpose39779_const" type="Const" version="opset1">
			<data offset="24926546" size="4194304" shape="2048,1024,1,1" element_type="f16"/>
			<output>
				<port id="0" precision="FP16" names="res5a_branch1/kernel/read:0">
					<dim>2048</dim>
					<dim>1024</dim>
					<dim>1</dim>
					<dim>1</dim>
				</port>
			</output>
		</layer>
		<layer id="246" name="res5a_branch1/convolution" type="Convolution" version="opset1">
			<data auto_pad="valid" strides="2,2" dilations="1,1" pads_begin="0,0" pads_end="0,0"/>
			<input>
				<port id="0">
					<dim>1</dim>
					<dim>1024</dim>
					<dim>84</dim>
					<dim>84</dim>
				</port>
				<port id="1">
					<dim>2048</dim>
					<dim>1024</dim>
					<dim>1</dim>
					<dim>1</dim>
				</port>
			</input>
			<output>
				<port id="2" precision="FP16">
					<dim>1</dim>
					<dim>2048</dim>
					<dim>42</dim>
					<dim>42</dim>
				</port>
			</output>
		</layer>
		<layer id="247" name="data_add_298662987130571/EltwiseUnsqueeze31273_const" type="Const" version="opset1">
			<data offset="29120850" size="4096" shape="1,2048,1,1" element_type="f16"/>
			<output>
				<port id="0" precision="FP16">
					<dim>1</dim>
					<dim>2048</dim>
					<dim>1</dim>
					<dim>1</dim>
				</port>
			</output>
		</layer>
		<layer id="248" name="bn5a_branch1/FusedBatchNorm/variance/Fused_Add_" type="Add" version="opset1">
			<data auto_broadcast="numpy"/>
			<input>
				<port id="0">
					<dim>1</dim>
					<dim>2048</dim>
					<dim>42</dim>
					<dim>42</dim>
				</port>
				<port id="1">
					<dim>1</dim>
					<dim>2048</dim>
					<dim>1</dim>
					<dim>1</dim>
				</port>
			</input>
			<output>
				<port id="2" precision="FP16" names="bn5a_branch1/FusedBatchNorm:0">
					<dim>1</dim>
					<dim>2048</dim>
					<dim>42</dim>
					<dim>42</dim>
				</port>
			</output>
		</layer>
		<layer id="249" name="res5a/add" type="Add" version="opset1">
			<data auto_broadcast="numpy"/>
			<input>
				<port id="0">
					<dim>1</dim>
					<dim>2048</dim>
					<dim>42</dim>
					<dim>42</dim>
				</port>
				<port id="1">
					<dim>1</dim>
					<dim>2048</dim>
					<dim>42</dim>
					<dim>42</dim>
				</port>
			</input>
			<output>
				<port id="2" precision="FP16" names="res5a/add:0">
					<dim>1</dim>
					<dim>2048</dim>
					<dim>42</dim>
					<dim>42</dim>
				</port>
			</output>
		</layer>
		<layer id="250" name="res5a_relu/Relu" type="ReLU" version="opset1">
			<input>
				<port id="0">
					<dim>1</dim>
					<dim>2048</dim>
					<dim>42</dim>
					<dim>42</dim>
				</port>
			</input>
			<output>
				<port id="1" precision="FP16" names="res5a_relu/Relu:0">
					<dim>1</dim>
					<dim>2048</dim>
					<dim>42</dim>
					<dim>42</dim>
				</port>
			</output>
		</layer>
		<layer id="251" name="res5b_branch2a/convolution/Transpose39783_const" type="Const" version="opset1">
			<data offset="29124946" size="2097152" shape="512,2048,1,1" element_type="f16"/>
			<output>
				<port id="0" precision="FP16" names="res5b_branch2a/kernel/read:0">
					<dim>512</dim>
					<dim>2048</dim>
					<dim>1</dim>
					<dim>1</dim>
				</port>
			</output>
		</layer>
		<layer id="252" name="res5b_branch2a/convolution" type="Convolution" version="opset1">
			<data auto_pad="valid" strides="1,1" dilations="1,1" pads_begin="0,0" pads_end="0,0"/>
			<input>
				<port id="0">
					<dim>1</dim>
					<dim>2048</dim>
					<dim>42</dim>
					<dim>42</dim>
				</port>
				<port id="1">
					<dim>512</dim>
					<dim>2048</dim>
					<dim>1</dim>
					<dim>1</dim>
				</port>
			</input>
			<output>
				<port id="2" precision="FP16">
					<dim>1</dim>
					<dim>512</dim>
					<dim>42</dim>
					<dim>42</dim>
				</port>
			</output>
		</layer>
		<layer id="253" name="data_add_298982990330579/EltwiseUnsqueeze31305_const" type="Const" version="opset1">
			<data offset="31222098" size="1024" shape="1,512,1,1" element_type="f16"/>
			<output>
				<port id="0" precision="FP16">
					<dim>1</dim>
					<dim>512</dim>
					<dim>1</dim>
					<dim>1</dim>
				</port>
			</output>
		</layer>
		<layer id="254" name="bn5b_branch2a/FusedBatchNorm/variance/Fused_Add_" type="Add" version="opset1">
			<data auto_broadcast="numpy"/>
			<input>
				<port id="0">
					<dim>1</dim>
					<dim>512</dim>
					<dim>42</dim>
					<dim>42</dim>
				</port>
				<port id="1">
					<dim>1</dim>
					<dim>512</dim>
					<dim>1</dim>
					<dim>1</dim>
				</port>
			</input>
			<output>
				<port id="2" precision="FP16" names="bn5b_branch2a/FusedBatchNorm:0">
					<dim>1</dim>
					<dim>512</dim>
					<dim>42</dim>
					<dim>42</dim>
				</port>
			</output>
		</layer>
		<layer id="255" name="res5b_branch2a_relu/Relu" type="ReLU" version="opset1">
			<input>
				<port id="0">
					<dim>1</dim>
					<dim>512</dim>
					<dim>42</dim>
					<dim>42</dim>
				</port>
			</input>
			<output>
				<port id="1" precision="FP16" names="res5b_branch2a_relu/Relu:0">
					<dim>1</dim>
					<dim>512</dim>
					<dim>42</dim>
					<dim>42</dim>
				</port>
			</output>
		</layer>
		<layer id="256" name="res5b_branch2b/convolution/Transpose39787_const" type="Const" version="opset1">
			<data offset="31223122" size="4718592" shape="512,512,3,3" element_type="f16"/>
			<output>
				<port id="0" precision="FP16" names="res5b_branch2b/kernel/read:0">
					<dim>512</dim>
					<dim>512</dim>
					<dim>3</dim>
					<dim>3</dim>
				</port>
			</output>
		</layer>
		<layer id="257" name="res5b_branch2b/convolution" type="Convolution" version="opset1">
			<data auto_pad="explicit" strides="1,1" dilations="1,1" pads_begin="1,1" pads_end="1,1"/>
			<input>
				<port id="0">
					<dim>1</dim>
					<dim>512</dim>
					<dim>42</dim>
					<dim>42</dim>
				</port>
				<port id="1">
					<dim>512</dim>
					<dim>512</dim>
					<dim>3</dim>
					<dim>3</dim>
				</port>
			</input>
			<output>
				<port id="2" precision="FP16">
					<dim>1</dim>
					<dim>512</dim>
					<dim>42</dim>
					<dim>42</dim>
				</port>
			</output>
		</layer>
		<layer id="258" name="data_add_299062991130581/EltwiseUnsqueeze31313_const" type="Const" version="opset1">
			<data offset="35941714" size="1024" shape="1,512,1,1" element_type="f16"/>
			<output>
				<port id="0" precision="FP16">
					<dim>1</dim>
					<dim>512</dim>
					<dim>1</dim>
					<dim>1</dim>
				</port>
			</output>
		</layer>
		<layer id="259" name="bn5b_branch2b/FusedBatchNorm/variance/Fused_Add_" type="Add" version="opset1">
			<data auto_broadcast="numpy"/>
			<input>
				<port id="0">
					<dim>1</dim>
					<dim>512</dim>
					<dim>42</dim>
					<dim>42</dim>
				</port>
				<port id="1">
					<dim>1</dim>
					<dim>512</dim>
					<dim>1</dim>
					<dim>1</dim>
				</port>
			</input>
			<output>
				<port id="2" precision="FP16" names="bn5b_branch2b/FusedBatchNorm:0">
					<dim>1</dim>
					<dim>512</dim>
					<dim>42</dim>
					<dim>42</dim>
				</port>
			</output>
		</layer>
		<layer id="260" name="res5b_branch2b_relu/Relu" type="ReLU" version="opset1">
			<input>
				<port id="0">
					<dim>1</dim>
					<dim>512</dim>
					<dim>42</dim>
					<dim>42</dim>
				</port>
			</input>
			<output>
				<port id="1" precision="FP16" names="res5b_branch2b_relu/Relu:0">
					<dim>1</dim>
					<dim>512</dim>
					<dim>42</dim>
					<dim>42</dim>
				</port>
			</output>
		</layer>
		<layer id="261" name="res5b_branch2c/convolution/Transpose39791_const" type="Const" version="opset1">
			<data offset="35942738" size="2097152" shape="2048,512,1,1" element_type="f16"/>
			<output>
				<port id="0" precision="FP16" names="res5b_branch2c/kernel/read:0">
					<dim>2048</dim>
					<dim>512</dim>
					<dim>1</dim>
					<dim>1</dim>
				</port>
			</output>
		</layer>
		<layer id="262" name="res5b_branch2c/convolution" type="Convolution" version="opset1">
			<data auto_pad="valid" strides="1,1" dilations="1,1" pads_begin="0,0" pads_end="0,0"/>
			<input>
				<port id="0">
					<dim>1</dim>
					<dim>512</dim>
					<dim>42</dim>
					<dim>42</dim>
				</port>
				<port id="1">
					<dim>2048</dim>
					<dim>512</dim>
					<dim>1</dim>
					<dim>1</dim>
				</port>
			</input>
			<output>
				<port id="2" precision="FP16">
					<dim>1</dim>
					<dim>2048</dim>
					<dim>42</dim>
					<dim>42</dim>
				</port>
			</output>
		</layer>
		<layer id="263" name="data_add_299142991930583/EltwiseUnsqueeze31321_const" type="Const" version="opset1">
			<data offset="38039890" size="4096" shape="1,2048,1,1" element_type="f16"/>
			<output>
				<port id="0" precision="FP16">
					<dim>1</dim>
					<dim>2048</dim>
					<dim>1</dim>
					<dim>1</dim>
				</port>
			</output>
		</layer>
		<layer id="264" name="bn5b_branch2c/FusedBatchNorm/variance/Fused_Add_" type="Add" version="opset1">
			<data auto_broadcast="numpy"/>
			<input>
				<port id="0">
					<dim>1</dim>
					<dim>2048</dim>
					<dim>42</dim>
					<dim>42</dim>
				</port>
				<port id="1">
					<dim>1</dim>
					<dim>2048</dim>
					<dim>1</dim>
					<dim>1</dim>
				</port>
			</input>
			<output>
				<port id="2" precision="FP16" names="bn5b_branch2c/FusedBatchNorm:0">
					<dim>1</dim>
					<dim>2048</dim>
					<dim>42</dim>
					<dim>42</dim>
				</port>
			</output>
		</layer>
		<layer id="265" name="res5b/add" type="Add" version="opset1">
			<data auto_broadcast="numpy"/>
			<input>
				<port id="0">
					<dim>1</dim>
					<dim>2048</dim>
					<dim>42</dim>
					<dim>42</dim>
				</port>
				<port id="1">
					<dim>1</dim>
					<dim>2048</dim>
					<dim>42</dim>
					<dim>42</dim>
				</port>
			</input>
			<output>
				<port id="2" precision="FP16" names="res5b/add:0">
					<dim>1</dim>
					<dim>2048</dim>
					<dim>42</dim>
					<dim>42</dim>
				</port>
			</output>
		</layer>
		<layer id="266" name="res5b_relu/Relu" type="ReLU" version="opset1">
			<input>
				<port id="0">
					<dim>1</dim>
					<dim>2048</dim>
					<dim>42</dim>
					<dim>42</dim>
				</port>
			</input>
			<output>
				<port id="1" precision="FP16" names="res5b_relu/Relu:0">
					<dim>1</dim>
					<dim>2048</dim>
					<dim>42</dim>
					<dim>42</dim>
				</port>
			</output>
		</layer>
		<layer id="267" name="res5c_branch2a/convolution/Transpose39795_const" type="Const" version="opset1">
			<data offset="38043986" size="2097152" shape="512,2048,1,1" element_type="f16"/>
			<output>
				<port id="0" precision="FP16" names="res5c_branch2a/kernel/read:0">
					<dim>512</dim>
					<dim>2048</dim>
					<dim>1</dim>
					<dim>1</dim>
				</port>
			</output>
		</layer>
		<layer id="268" name="res5c_branch2a/convolution" type="Convolution" version="opset1">
			<data auto_pad="valid" strides="1,1" dilations="1,1" pads_begin="0,0" pads_end="0,0"/>
			<input>
				<port id="0">
					<dim>1</dim>
					<dim>2048</dim>
					<dim>42</dim>
					<dim>42</dim>
				</port>
				<port id="1">
					<dim>512</dim>
					<dim>2048</dim>
					<dim>1</dim>
					<dim>1</dim>
				</port>
			</input>
			<output>
				<port id="2" precision="FP16">
					<dim>1</dim>
					<dim>512</dim>
					<dim>42</dim>
					<dim>42</dim>
				</port>
			</output>
		</layer>
		<layer id="269" name="data_add_299222992730585/EltwiseUnsqueeze31329_const" type="Const" version="opset1">
			<data offset="40141138" size="1024" shape="1,512,1,1" element_type="f16"/>
			<output>
				<port id="0" precision="FP16">
					<dim>1</dim>
					<dim>512</dim>
					<dim>1</dim>
					<dim>1</dim>
				</port>
			</output>
		</layer>
		<layer id="270" name="bn5c_branch2a/FusedBatchNorm/variance/Fused_Add_" type="Add" version="opset1">
			<data auto_broadcast="numpy"/>
			<input>
				<port id="0">
					<dim>1</dim>
					<dim>512</dim>
					<dim>42</dim>
					<dim>42</dim>
				</port>
				<port id="1">
					<dim>1</dim>
					<dim>512</dim>
					<dim>1</dim>
					<dim>1</dim>
				</port>
			</input>
			<output>
				<port id="2" precision="FP16" names="bn5c_branch2a/FusedBatchNorm:0">
					<dim>1</dim>
					<dim>512</dim>
					<dim>42</dim>
					<dim>42</dim>
				</port>
			</output>
		</layer>
		<layer id="271" name="res5c_branch2a_relu/Relu" type="ReLU" version="opset1">
			<input>
				<port id="0">
					<dim>1</dim>
					<dim>512</dim>
					<dim>42</dim>
					<dim>42</dim>
				</port>
			</input>
			<output>
				<port id="1" precision="FP16" names="res5c_branch2a_relu/Relu:0">
					<dim>1</dim>
					<dim>512</dim>
					<dim>42</dim>
					<dim>42</dim>
				</port>
			</output>
		</layer>
		<layer id="272" name="res5c_branch2b/convolution/Transpose39799_const" type="Const" version="opset1">
			<data offset="40142162" size="4718592" shape="512,512,3,3" element_type="f16"/>
			<output>
				<port id="0" precision="FP16" names="res5c_branch2b/kernel/read:0">
					<dim>512</dim>
					<dim>512</dim>
					<dim>3</dim>
					<dim>3</dim>
				</port>
			</output>
		</layer>
		<layer id="273" name="res5c_branch2b/convolution" type="Convolution" version="opset1">
			<data auto_pad="explicit" strides="1,1" dilations="1,1" pads_begin="1,1" pads_end="1,1"/>
			<input>
				<port id="0">
					<dim>1</dim>
					<dim>512</dim>
					<dim>42</dim>
					<dim>42</dim>
				</port>
				<port id="1">
					<dim>512</dim>
					<dim>512</dim>
					<dim>3</dim>
					<dim>3</dim>
				</port>
			</input>
			<output>
				<port id="2" precision="FP16">
					<dim>1</dim>
					<dim>512</dim>
					<dim>42</dim>
					<dim>42</dim>
				</port>
			</output>
		</layer>
		<layer id="274" name="data_add_299302993530587/EltwiseUnsqueeze31337_const" type="Const" version="opset1">
			<data offset="44860754" size="1024" shape="1,512,1,1" element_type="f16"/>
			<output>
				<port id="0" precision="FP16">
					<dim>1</dim>
					<dim>512</dim>
					<dim>1</dim>
					<dim>1</dim>
				</port>
			</output>
		</layer>
		<layer id="275" name="bn5c_branch2b/FusedBatchNorm/variance/Fused_Add_" type="Add" version="opset1">
			<data auto_broadcast="numpy"/>
			<input>
				<port id="0">
					<dim>1</dim>
					<dim>512</dim>
					<dim>42</dim>
					<dim>42</dim>
				</port>
				<port id="1">
					<dim>1</dim>
					<dim>512</dim>
					<dim>1</dim>
					<dim>1</dim>
				</port>
			</input>
			<output>
				<port id="2" precision="FP16" names="bn5c_branch2b/FusedBatchNorm:0">
					<dim>1</dim>
					<dim>512</dim>
					<dim>42</dim>
					<dim>42</dim>
				</port>
			</output>
		</layer>
		<layer id="276" name="res5c_branch2b_relu/Relu" type="ReLU" version="opset1">
			<input>
				<port id="0">
					<dim>1</dim>
					<dim>512</dim>
					<dim>42</dim>
					<dim>42</dim>
				</port>
			</input>
			<output>
				<port id="1" precision="FP16" names="res5c_branch2b_relu/Relu:0">
					<dim>1</dim>
					<dim>512</dim>
					<dim>42</dim>
					<dim>42</dim>
				</port>
			</output>
		</layer>
		<layer id="277" name="res5c_branch2c/convolution/Transpose39803_const" type="Const" version="opset1">
			<data offset="44861778" size="2097152" shape="2048,512,1,1" element_type="f16"/>
			<output>
				<port id="0" precision="FP16" names="res5c_branch2c/kernel/read:0">
					<dim>2048</dim>
					<dim>512</dim>
					<dim>1</dim>
					<dim>1</dim>
				</port>
			</output>
		</layer>
		<layer id="278" name="res5c_branch2c/convolution" type="Convolution" version="opset1">
			<data auto_pad="valid" strides="1,1" dilations="1,1" pads_begin="0,0" pads_end="0,0"/>
			<input>
				<port id="0">
					<dim>1</dim>
					<dim>512</dim>
					<dim>42</dim>
					<dim>42</dim>
				</port>
				<port id="1">
					<dim>2048</dim>
					<dim>512</dim>
					<dim>1</dim>
					<dim>1</dim>
				</port>
			</input>
			<output>
				<port id="2" precision="FP16">
					<dim>1</dim>
					<dim>2048</dim>
					<dim>42</dim>
					<dim>42</dim>
				</port>
			</output>
		</layer>
		<layer id="279" name="data_add_299382994330589/EltwiseUnsqueeze31345_const" type="Const" version="opset1">
			<data offset="46958930" size="4096" shape="1,2048,1,1" element_type="f16"/>
			<output>
				<port id="0" precision="FP16">
					<dim>1</dim>
					<dim>2048</dim>
					<dim>1</dim>
					<dim>1</dim>
				</port>
			</output>
		</layer>
		<layer id="280" name="bn5c_branch2c/FusedBatchNorm/variance/Fused_Add_" type="Add" version="opset1">
			<data auto_broadcast="numpy"/>
			<input>
				<port id="0">
					<dim>1</dim>
					<dim>2048</dim>
					<dim>42</dim>
					<dim>42</dim>
				</port>
				<port id="1">
					<dim>1</dim>
					<dim>2048</dim>
					<dim>1</dim>
					<dim>1</dim>
				</port>
			</input>
			<output>
				<port id="2" precision="FP16" names="bn5c_branch2c/FusedBatchNorm:0">
					<dim>1</dim>
					<dim>2048</dim>
					<dim>42</dim>
					<dim>42</dim>
				</port>
			</output>
		</layer>
		<layer id="281" name="res5c/add" type="Add" version="opset1">
			<data auto_broadcast="numpy"/>
			<input>
				<port id="0">
					<dim>1</dim>
					<dim>2048</dim>
					<dim>42</dim>
					<dim>42</dim>
				</port>
				<port id="1">
					<dim>1</dim>
					<dim>2048</dim>
					<dim>42</dim>
					<dim>42</dim>
				</port>
			</input>
			<output>
				<port id="2" precision="FP16" names="res5c/add:0">
					<dim>1</dim>
					<dim>2048</dim>
					<dim>42</dim>
					<dim>42</dim>
				</port>
			</output>
		</layer>
		<layer id="282" name="res5c_relu/Relu" type="ReLU" version="opset1">
			<input>
				<port id="0">
					<dim>1</dim>
					<dim>2048</dim>
					<dim>42</dim>
					<dim>42</dim>
				</port>
			</input>
			<output>
				<port id="1" precision="FP16" names="res5c_relu/Relu:0">
					<dim>1</dim>
					<dim>2048</dim>
					<dim>42</dim>
					<dim>42</dim>
				</port>
			</output>
		</layer>
		<layer id="283" name="C5_reduced/convolution/Transpose39807_const" type="Const" version="opset1">
			<data offset="46963026" size="1048576" shape="256,2048,1,1" element_type="f16"/>
			<output>
				<port id="0" precision="FP16" names="C5_reduced/kernel/read:0">
					<dim>256</dim>
					<dim>2048</dim>
					<dim>1</dim>
					<dim>1</dim>
				</port>
			</output>
		</layer>
		<layer id="284" name="C5_reduced/convolution" type="Convolution" version="opset1">
			<data auto_pad="same_upper" strides="1,1" dilations="1,1" pads_begin="0,0" pads_end="0,0"/>
			<input>
				<port id="0">
					<dim>1</dim>
					<dim>2048</dim>
					<dim>42</dim>
					<dim>42</dim>
				</port>
				<port id="1">
					<dim>256</dim>
					<dim>2048</dim>
					<dim>1</dim>
					<dim>1</dim>
				</port>
			</input>
			<output>
				<port id="2" precision="FP16" names="C5_reduced/convolution:0">
					<dim>1</dim>
					<dim>256</dim>
					<dim>42</dim>
					<dim>42</dim>
				</port>
			</output>
		</layer>
		<layer id="285" name="C5_reduced/bias/read/EltwiseUnsqueeze30841_const" type="Const" version="opset1">
			<data offset="48011602" size="512" shape="1,256,1,1" element_type="f16"/>
			<output>
				<port id="0" precision="FP16" names="C5_reduced/bias/read:0">
					<dim>1</dim>
					<dim>256</dim>
					<dim>1</dim>
					<dim>1</dim>
				</port>
			</output>
		</layer>
		<layer id="286" name="C5_reduced/BiasAdd/Add" type="Add" version="opset1">
			<data auto_broadcast="numpy"/>
			<input>
				<port id="0">
					<dim>1</dim>
					<dim>256</dim>
					<dim>42</dim>
					<dim>42</dim>
				</port>
				<port id="1">
					<dim>1</dim>
					<dim>256</dim>
					<dim>1</dim>
					<dim>1</dim>
				</port>
			</input>
			<output>
				<port id="2" precision="FP16" names="C5_reduced/BiasAdd:0">
					<dim>1</dim>
					<dim>256</dim>
					<dim>42</dim>
					<dim>42</dim>
				</port>
			</output>
		</layer>
		<layer id="287" name="P5_upsampled/Shape" type="ShapeOf" version="opset3">
			<data output_type="i32"/>
			<input>
				<port id="0">
					<dim>1</dim>
					<dim>1024</dim>
					<dim>84</dim>
					<dim>84</dim>
				</port>
			</input>
			<output>
				<port id="1" precision="I32">
					<dim>4</dim>
				</port>
			</output>
		</layer>
		<layer id="288" name="P5_upsampled/Shape/GatherNCHWtoNHWC/Cast_158812_const" type="Const" version="opset1">
			<data offset="48012114" size="16" shape="4" element_type="i32"/>
			<output>
				<port id="0" precision="I32">
					<dim>4</dim>
				</port>
			</output>
		</layer>
		<layer id="289" name="P5_upsampled/Shape/GatherNCHWtoNHWC/Cast_258814_const" type="Const" version="opset1">
			<data offset="48012130" size="8" shape="" element_type="i64"/>
			<output>
				<port id="0" precision="I64"/>
			</output>
		</layer>
		<layer id="290" name="P5_upsampled/Shape/GatherNCHWtoNHWC" type="Gather" version="opset1">
			<input>
				<port id="0">
					<dim>4</dim>
				</port>
				<port id="1">
					<dim>4</dim>
				</port>
				<port id="2"/>
			</input>
			<output>
				<port id="3" precision="I32" names="P5_upsampled/Shape:0">
					<dim>4</dim>
				</port>
			</output>
		</layer>
		<layer id="291" name="P5_upsampled/strided_slice/Cast_158832_const" type="Const" version="opset1">
			<data offset="48012138" size="8" shape="1" element_type="i64"/>
			<output>
				<port id="0" precision="I64" names="P5_upsampled/strided_slice/stack:0">
					<dim>1</dim>
				</port>
			</output>
		</layer>
		<layer id="292" name="P5_upsampled/strided_slice/Cast_258834_const" type="Const" version="opset1">
			<data offset="48012146" size="8" shape="1" element_type="i64"/>
			<output>
				<port id="0" precision="I64" names="P5_upsampled/strided_slice/stack_1:0">
					<dim>1</dim>
				</port>
			</output>
		</layer>
		<layer id="293" name="P5_upsampled/strided_slice/Cast_358836_const" type="Const" version="opset1">
			<data offset="48012138" size="8" shape="1" element_type="i64"/>
			<output>
				<port id="0" precision="I64" names="P5_upsampled/strided_slice/stack_2:0">
					<dim>1</dim>
				</port>
			</output>
		</layer>
		<layer id="294" name="P5_upsampled/strided_slice" type="StridedSlice" version="opset1">
			<data begin_mask="0" end_mask="0" new_axis_mask="0" shrink_axis_mask="1" ellipsis_mask="0"/>
			<input>
				<port id="0">
					<dim>4</dim>
				</port>
				<port id="1">
					<dim>1</dim>
				</port>
				<port id="2">
					<dim>1</dim>
				</port>
				<port id="3">
					<dim>1</dim>
				</port>
			</input>
			<output>
				<port id="4" precision="I32" names="P5_upsampled/strided_slice:0"/>
			</output>
		</layer>
		<layer id="295" name="P5_upsampled/resize_images/size/Unsqueeze_input_port_1/value/Output_0/Data__const" type="Const" version="opset1">
			<data offset="48012130" size="8" shape="1" element_type="i64"/>
			<output>
				<port id="0" precision="I64">
					<dim>1</dim>
				</port>
			</output>
		</layer>
		<layer id="296" name="P5_upsampled/resize_images/size/Unsqueeze" type="Unsqueeze" version="opset1">
			<input>
				<port id="0"/>
				<port id="1">
					<dim>1</dim>
				</port>
			</input>
			<output>
				<port id="2" precision="I32">
					<dim>1</dim>
				</port>
			</output>
		</layer>
		<layer id="297" name="P5_upsampled/strided_slice_1/Cast_159246_const" type="Const" version="opset1">
			<data offset="48012146" size="8" shape="1" element_type="i64"/>
			<output>
				<port id="0" precision="I64" names="P5_upsampled/strided_slice_1/stack:0">
					<dim>1</dim>
				</port>
			</output>
		</layer>
		<layer id="298" name="P5_upsampled/strided_slice_1/Cast_259248_const" type="Const" version="opset1">
			<data offset="48012154" size="8" shape="1" element_type="i64"/>
			<output>
				<port id="0" precision="I64" names="P5_upsampled/strided_slice_1/stack_1:0">
					<dim>1</dim>
				</port>
			</output>
		</layer>
		<layer id="299" name="P5_upsampled/strided_slice_1/Cast_359250_const" type="Const" version="opset1">
			<data offset="48012138" size="8" shape="1" element_type="i64"/>
			<output>
				<port id="0" precision="I64" names="P5_upsampled/strided_slice_1/stack_2:0">
					<dim>1</dim>
				</port>
			</output>
		</layer>
		<layer id="300" name="P5_upsampled/strided_slice_1" type="StridedSlice" version="opset1">
			<data begin_mask="0" end_mask="0" new_axis_mask="0" shrink_axis_mask="1" ellipsis_mask="0"/>
			<input>
				<port id="0">
					<dim>4</dim>
				</port>
				<port id="1">
					<dim>1</dim>
				</port>
				<port id="2">
					<dim>1</dim>
				</port>
				<port id="3">
					<dim>1</dim>
				</port>
			</input>
			<output>
				<port id="4" precision="I32" names="P5_upsampled/strided_slice_1:0"/>
			</output>
		</layer>
		<layer id="301" name="P5_upsampled/resize_images/size/Unsqueeze4990_input_port_1/value/Output_0/Data__const" type="Const" version="opset1">
			<data offset="48012130" size="8" shape="1" element_type="i64"/>
			<output>
				<port id="0" precision="I64">
					<dim>1</dim>
				</port>
			</output>
		</layer>
		<layer id="302" name="P5_upsampled/resize_images/size/Unsqueeze4990" type="Unsqueeze" version="opset1">
			<input>
				<port id="0"/>
				<port id="1">
					<dim>1</dim>
				</port>
			</input>
			<output>
				<port id="2" precision="I32">
					<dim>1</dim>
				</port>
			</output>
		</layer>
		<layer id="303" name="P5_upsampled/resize_images/size" type="Concat" version="opset1">
			<data axis="0"/>
			<input>
				<port id="0">
					<dim>1</dim>
				</port>
				<port id="1">
					<dim>1</dim>
				</port>
			</input>
			<output>
				<port id="2" precision="I32">
					<dim>2</dim>
				</port>
			</output>
		</layer>
		<layer id="304" name="P5_upsampled/resize_images/ResizeNearestNeighbor/Cast_1" type="Convert" version="opset1">
			<data destination_type="i64"/>
			<input>
				<port id="0">
					<dim>2</dim>
				</port>
			</input>
			<output>
				<port id="1" precision="I64" names="P5_upsampled/resize_images/size:0">
					<dim>2</dim>
				</port>
			</output>
		</layer>
		<layer id="305" name="4778" type="Convert" version="opset1">
			<data destination_type="f16"/>
			<input>
				<port id="0">
					<dim>2</dim>
				</port>
			</input>
			<output>
				<port id="1" precision="FP16">
					<dim>2</dim>
				</port>
			</output>
		</layer>
		<layer id="306" name="P5_upsampled/resize_images/ResizeNearestNeighbor/shapeof" type="ShapeOf" version="opset3">
			<data output_type="i64"/>
			<input>
				<port id="0">
					<dim>1</dim>
					<dim>256</dim>
					<dim>42</dim>
					<dim>42</dim>
				</port>
			</input>
			<output>
				<port id="1" precision="I64">
					<dim>4</dim>
				</port>
			</output>
		</layer>
		<layer id="307" name="P5_upsampled/resize_images/ResizeNearestNeighbor/shapeof/GatherNCHWtoNHWC/Cast_158828_const" type="Const" version="opset1">
			<data offset="48012114" size="16" shape="4" element_type="i32"/>
			<output>
				<port id="0" precision="I32">
					<dim>4</dim>
				</port>
			</output>
		</layer>
		<layer id="308" name="P5_upsampled/resize_images/ResizeNearestNeighbor/shapeof/GatherNCHWtoNHWC/Cast_258830_const" type="Const" version="opset1">
			<data offset="48012130" size="8" shape="" element_type="i64"/>
			<output>
				<port id="0" precision="I64"/>
			</output>
		</layer>
		<layer id="309" name="P5_upsampled/resize_images/ResizeNearestNeighbor/shapeof/GatherNCHWtoNHWC" type="Gather" version="opset1">
			<input>
				<port id="0">
					<dim>4</dim>
				</port>
				<port id="1">
					<dim>4</dim>
				</port>
				<port id="2"/>
			</input>
			<output>
				<port id="3" precision="I64">
					<dim>4</dim>
				</port>
			</output>
		</layer>
		<layer id="310" name="P5_upsampled/resize_images/ResizeNearestNeighbor/StridedSlice/Cast_159240_const" type="Const" version="opset1">
			<data offset="48012138" size="8" shape="1" element_type="i64"/>
			<output>
				<port id="0" precision="I64">
					<dim>1</dim>
				</port>
			</output>
		</layer>
		<layer id="311" name="P5_upsampled/resize_images/ResizeNearestNeighbor/StridedSlice/Cast_259242_const" type="Const" version="opset1">
			<data offset="48012154" size="8" shape="1" element_type="i64"/>
			<output>
				<port id="0" precision="I64">
					<dim>1</dim>
				</port>
			</output>
		</layer>
		<layer id="312" name="P5_upsampled/resize_images/ResizeNearestNeighbor/StridedSlice/Cast_359244_const" type="Const" version="opset1">
			<data offset="48012138" size="8" shape="1" element_type="i64"/>
			<output>
				<port id="0" precision="I64">
					<dim>1</dim>
				</port>
			</output>
		</layer>
		<layer id="313" name="P5_upsampled/resize_images/ResizeNearestNeighbor/StridedSlice" type="StridedSlice" version="opset1">
			<data begin_mask="0" end_mask="0" new_axis_mask="0" shrink_axis_mask="0" ellipsis_mask="0"/>
			<input>
				<port id="0">
					<dim>4</dim>
				</port>
				<port id="1">
					<dim>1</dim>
				</port>
				<port id="2">
					<dim>1</dim>
				</port>
				<port id="3">
					<dim>1</dim>
				</port>
			</input>
			<output>
				<port id="4" precision="I64">
					<dim>2</dim>
				</port>
			</output>
		</layer>
		<layer id="314" name="4777" type="Convert" version="opset1">
			<data destination_type="f16"/>
			<input>
				<port id="0">
					<dim>2</dim>
				</port>
			</input>
			<output>
				<port id="1" precision="FP16">
					<dim>2</dim>
				</port>
			</output>
		</layer>
		<layer id="315" name="P5_upsampled/resize_images/ResizeNearestNeighbor/Div" type="Divide" version="opset1">
			<data auto_broadcast="numpy"/>
			<input>
				<port id="0">
					<dim>2</dim>
				</port>
				<port id="1">
					<dim>2</dim>
				</port>
			</input>
			<output>
				<port id="2" precision="FP16">
					<dim>2</dim>
				</port>
			</output>
		</layer>
		<layer id="316" name="40041_const" type="Const" version="opset1">
			<data offset="48012162" size="16" shape="2" element_type="i64"/>
			<output>
				<port id="0" precision="I64">
					<dim>2</dim>
				</port>
			</output>
		</layer>
		<layer id="317" name="P5_upsampled/resize_images/ResizeNearestNeighbor" type="Interpolate" version="opset4">
			<data mode="nearest" nearest_mode="floor" cube_coeff="-0.75" coordinate_transformation_mode="asymmetric" shape_calculation_mode="sizes" antialias="false" pads_begin="0,0,0,0" pads_end="0,0,0,0"/>
			<input>
				<port id="0">
					<dim>1</dim>
					<dim>256</dim>
					<dim>42</dim>
					<dim>42</dim>
				</port>
				<port id="1">
					<dim>2</dim>
				</port>
				<port id="2">
					<dim>2</dim>
				</port>
				<port id="3">
					<dim>2</dim>
				</port>
			</input>
			<output>
				<port id="4" precision="FP16" names="P5_upsampled/resize_images/ResizeNearestNeighbor:0">
					<dim>1</dim>
					<dim>256</dim>
					<dim>84</dim>
					<dim>84</dim>
				</port>
			</output>
		</layer>
		<layer id="318" name="C4_reduced/convolution/Transpose39811_const" type="Const" version="opset1">
			<data offset="48012178" size="524288" shape="256,1024,1,1" element_type="f16"/>
			<output>
				<port id="0" precision="FP16" names="C4_reduced/kernel/read:0">
					<dim>256</dim>
					<dim>1024</dim>
					<dim>1</dim>
					<dim>1</dim>
				</port>
			</output>
		</layer>
		<layer id="319" name="C4_reduced/convolution" type="Convolution" version="opset1">
			<data auto_pad="same_upper" strides="1,1" dilations="1,1" pads_begin="0,0" pads_end="0,0"/>
			<input>
				<port id="0">
					<dim>1</dim>
					<dim>1024</dim>
					<dim>84</dim>
					<dim>84</dim>
				</port>
				<port id="1">
					<dim>256</dim>
					<dim>1024</dim>
					<dim>1</dim>
					<dim>1</dim>
				</port>
			</input>
			<output>
				<port id="2" precision="FP16" names="C4_reduced/convolution:0">
					<dim>1</dim>
					<dim>256</dim>
					<dim>84</dim>
					<dim>84</dim>
				</port>
			</output>
		</layer>
		<layer id="320" name="C4_reduced/bias/read/EltwiseUnsqueeze30769_const" type="Const" version="opset1">
			<data offset="48536466" size="512" shape="1,256,1,1" element_type="f16"/>
			<output>
				<port id="0" precision="FP16" names="C4_reduced/bias/read:0">
					<dim>1</dim>
					<dim>256</dim>
					<dim>1</dim>
					<dim>1</dim>
				</port>
			</output>
		</layer>
		<layer id="321" name="C4_reduced/BiasAdd/Add" type="Add" version="opset1">
			<data auto_broadcast="numpy"/>
			<input>
				<port id="0">
					<dim>1</dim>
					<dim>256</dim>
					<dim>84</dim>
					<dim>84</dim>
				</port>
				<port id="1">
					<dim>1</dim>
					<dim>256</dim>
					<dim>1</dim>
					<dim>1</dim>
				</port>
			</input>
			<output>
				<port id="2" precision="FP16" names="C4_reduced/BiasAdd:0">
					<dim>1</dim>
					<dim>256</dim>
					<dim>84</dim>
					<dim>84</dim>
				</port>
			</output>
		</layer>
		<layer id="322" name="P4_merged/add" type="Add" version="opset1">
			<data auto_broadcast="numpy"/>
			<input>
				<port id="0">
					<dim>1</dim>
					<dim>256</dim>
					<dim>84</dim>
					<dim>84</dim>
				</port>
				<port id="1">
					<dim>1</dim>
					<dim>256</dim>
					<dim>84</dim>
					<dim>84</dim>
				</port>
			</input>
			<output>
				<port id="2" precision="FP16" names="P4_merged/add:0">
					<dim>1</dim>
					<dim>256</dim>
					<dim>84</dim>
					<dim>84</dim>
				</port>
			</output>
		</layer>
		<layer id="323" name="P4_upsampled/Shape" type="ShapeOf" version="opset3">
			<data output_type="i32"/>
			<input>
				<port id="0">
					<dim>1</dim>
					<dim>512</dim>
					<dim>167</dim>
					<dim>167</dim>
				</port>
			</input>
			<output>
				<port id="1" precision="I32">
					<dim>4</dim>
				</port>
			</output>
		</layer>
		<layer id="324" name="P4_upsampled/Shape/GatherNCHWtoNHWC/Cast_158858_const" type="Const" version="opset1">
			<data offset="48012114" size="16" shape="4" element_type="i32"/>
			<output>
				<port id="0" precision="I32">
					<dim>4</dim>
				</port>
			</output>
		</layer>
		<layer id="325" name="P4_upsampled/Shape/GatherNCHWtoNHWC/Cast_258860_const" type="Const" version="opset1">
			<data offset="48012130" size="8" shape="" element_type="i64"/>
			<output>
				<port id="0" precision="I64"/>
			</output>
		</layer>
		<layer id="326" name="P4_upsampled/Shape/GatherNCHWtoNHWC" type="Gather" version="opset1">
			<input>
				<port id="0">
					<dim>4</dim>
				</port>
				<port id="1">
					<dim>4</dim>
				</port>
				<port id="2"/>
			</input>
			<output>
				<port id="3" precision="I32" names="P4_upsampled/Shape:0">
					<dim>4</dim>
				</port>
			</output>
		</layer>
		<layer id="327" name="P4_upsampled/strided_slice/Cast_159290_const" type="Const" version="opset1">
			<data offset="48012138" size="8" shape="1" element_type="i64"/>
			<output>
				<port id="0" precision="I64" names="P4_upsampled/strided_slice/stack:0">
					<dim>1</dim>
				</port>
			</output>
		</layer>
		<layer id="328" name="P4_upsampled/strided_slice/Cast_259292_const" type="Const" version="opset1">
			<data offset="48012146" size="8" shape="1" element_type="i64"/>
			<output>
				<port id="0" precision="I64" names="P4_upsampled/strided_slice/stack_1:0">
					<dim>1</dim>
				</port>
			</output>
		</layer>
		<layer id="329" name="P4_upsampled/strided_slice/Cast_359294_const" type="Const" version="opset1">
			<data offset="48012138" size="8" shape="1" element_type="i64"/>
			<output>
				<port id="0" precision="I64" names="P4_upsampled/strided_slice/stack_2:0">
					<dim>1</dim>
				</port>
			</output>
		</layer>
		<layer id="330" name="P4_upsampled/strided_slice" type="StridedSlice" version="opset1">
			<data begin_mask="0" end_mask="0" new_axis_mask="0" shrink_axis_mask="1" ellipsis_mask="0"/>
			<input>
				<port id="0">
					<dim>4</dim>
				</port>
				<port id="1">
					<dim>1</dim>
				</port>
				<port id="2">
					<dim>1</dim>
				</port>
				<port id="3">
					<dim>1</dim>
				</port>
			</input>
			<output>
				<port id="4" precision="I32" names="P4_upsampled/strided_slice:0"/>
			</output>
		</layer>
		<layer id="331" name="P4_upsampled/resize_images/size/Unsqueeze_input_port_1/value/Output_0/Data__const" type="Const" version="opset1">
			<data offset="48012130" size="8" shape="1" element_type="i64"/>
			<output>
				<port id="0" precision="I64">
					<dim>1</dim>
				</port>
			</output>
		</layer>
		<layer id="332" name="P4_upsampled/resize_images/size/Unsqueeze" type="Unsqueeze" version="opset1">
			<input>
				<port id="0"/>
				<port id="1">
					<dim>1</dim>
				</port>
			</input>
			<output>
				<port id="2" precision="I32">
					<dim>1</dim>
				</port>
			</output>
		</layer>
		<layer id="333" name="P4_upsampled/strided_slice_1/Cast_159090_const" type="Const" version="opset1">
			<data offset="48012146" size="8" shape="1" element_type="i64"/>
			<output>
				<port id="0" precision="I64" names="P4_upsampled/strided_slice_1/stack:0">
					<dim>1</dim>
				</port>
			</output>
		</layer>
		<layer id="334" name="P4_upsampled/strided_slice_1/Cast_259092_const" type="Const" version="opset1">
			<data offset="48012154" size="8" shape="1" element_type="i64"/>
			<output>
				<port id="0" precision="I64" names="P4_upsampled/strided_slice_1/stack_1:0">
					<dim>1</dim>
				</port>
			</output>
		</layer>
		<layer id="335" name="P4_upsampled/strided_slice_1/Cast_359094_const" type="Const" version="opset1">
			<data offset="48012138" size="8" shape="1" element_type="i64"/>
			<output>
				<port id="0" precision="I64" names="P4_upsampled/strided_slice_1/stack_2:0">
					<dim>1</dim>
				</port>
			</output>
		</layer>
		<layer id="336" name="P4_upsampled/strided_slice_1" type="StridedSlice" version="opset1">
			<data begin_mask="0" end_mask="0" new_axis_mask="0" shrink_axis_mask="1" ellipsis_mask="0"/>
			<input>
				<port id="0">
					<dim>4</dim>
				</port>
				<port id="1">
					<dim>1</dim>
				</port>
				<port id="2">
					<dim>1</dim>
				</port>
				<port id="3">
					<dim>1</dim>
				</port>
			</input>
			<output>
				<port id="4" precision="I32" names="P4_upsampled/strided_slice_1:0"/>
			</output>
		</layer>
		<layer id="337" name="P4_upsampled/resize_images/size/Unsqueeze4959_input_port_1/value/Output_0/Data__const" type="Const" version="opset1">
			<data offset="48012130" size="8" shape="1" element_type="i64"/>
			<output>
				<port id="0" precision="I64">
					<dim>1</dim>
				</port>
			</output>
		</layer>
		<layer id="338" name="P4_upsampled/resize_images/size/Unsqueeze4959" type="Unsqueeze" version="opset1">
			<input>
				<port id="0"/>
				<port id="1">
					<dim>1</dim>
				</port>
			</input>
			<output>
				<port id="2" precision="I32">
					<dim>1</dim>
				</port>
			</output>
		</layer>
		<layer id="339" name="P4_upsampled/resize_images/size" type="Concat" version="opset1">
			<data axis="0"/>
			<input>
				<port id="0">
					<dim>1</dim>
				</port>
				<port id="1">
					<dim>1</dim>
				</port>
			</input>
			<output>
				<port id="2" precision="I32">
					<dim>2</dim>
				</port>
			</output>
		</layer>
		<layer id="340" name="P4_upsampled/resize_images/ResizeNearestNeighbor/Cast_1" type="Convert" version="opset1">
			<data destination_type="i64"/>
			<input>
				<port id="0">
					<dim>2</dim>
				</port>
			</input>
			<output>
				<port id="1" precision="I64" names="P4_upsampled/resize_images/size:0">
…
		<edge from-layer="800" from-port="2" to-layer="802" to-port="0"/>
		<edge from-layer="801" from-port="0" to-layer="802" to-port="1"/>
		<edge from-layer="802" from-port="2" to-layer="804" to-port="0"/>
		<edge from-layer="803" from-port="0" to-layer="804" to-port="1"/>
		<edge from-layer="805" from-port="0" to-layer="807" to-port="0"/>
		<edge from-layer="800" from-port="2" to-layer="807" to-port="1"/>
		<edge from-layer="806" from-port="0" to-layer="807" to-port="2"/>
		<edge from-layer="804" from-port="2" to-layer="808" to-port="0"/>
		<edge from-layer="807" from-port="3" to-layer="808" to-port="1"/>
		<edge from-layer="808" from-port="2" to-layer="809" to-port="0"/>
		<edge from-layer="796" from-port="4" to-layer="810" to-port="0"/>
		<edge from-layer="809" from-port="1" to-layer="810" to-port="1"/>
		<edge from-layer="810" from-port="2" to-layer="811" to-port="0"/>
		<edge from-layer="811" from-port="1" to-layer="815" to-port="0"/>
		<edge from-layer="812" from-port="0" to-layer="815" to-port="1"/>
		<edge from-layer="813" from-port="0" to-layer="815" to-port="2"/>
		<edge from-layer="814" from-port="0" to-layer="815" to-port="3"/>
		<edge from-layer="815" from-port="4" to-layer="817" to-port="0"/>
		<edge from-layer="816" from-port="0" to-layer="817" to-port="1"/>
		<edge from-layer="817" from-port="2" to-layer="820" to-port="0"/>
		<edge from-layer="818" from-port="0" to-layer="820" to-port="1"/>
		<edge from-layer="819" from-port="0" to-layer="820" to-port="2"/>
		<edge from-layer="820" from-port="3" to-layer="821" to-port="0"/>
		<edge from-layer="810" from-port="2" to-layer="822" to-port="0"/>
		<edge from-layer="821" from-port="1" to-layer="822" to-port="1"/>
		<edge from-layer="723" from-port="0" to-layer="823" to-port="0"/>
		<edge from-layer="822" from-port="2" to-layer="823" to-port="1"/>
		<edge from-layer="815" from-port="4" to-layer="825" to-port="0"/>
		<edge from-layer="824" from-port="0" to-layer="825" to-port="1"/>
		<edge from-layer="825" from-port="2" to-layer="827" to-port="0"/>
		<edge from-layer="826" from-port="0" to-layer="827" to-port="1"/>
		<edge from-layer="827" from-port="2" to-layer="829" to-port="0"/>
		<edge from-layer="828" from-port="0" to-layer="829" to-port="1"/>
		<edge from-layer="829" from-port="2" to-layer="830" to-port="0"/>
		<edge from-layer="823" from-port="2" to-layer="831" to-port="0"/>
		<edge from-layer="830" from-port="1" to-layer="831" to-port="1"/>
		<edge from-layer="831" from-port="2" to-layer="833" to-port="0"/>
		<edge from-layer="832" from-port="0" to-layer="833" to-port="1"/>
		<edge from-layer="732" from-port="3" to-layer="837" to-port="0"/>
		<edge from-layer="834" from-port="0" to-layer="837" to-port="1"/>
		<edge from-layer="835" from-port="0" to-layer="837" to-port="2"/>
		<edge from-layer="836" from-port="0" to-layer="837" to-port="3"/>
		<edge from-layer="837" from-port="4" to-layer="839" to-port="0"/>
		<edge from-layer="838" from-port="0" to-layer="839" to-port="1"/>
		<edge from-layer="839" from-port="2" to-layer="842" to-port="0"/>
		<edge from-layer="840" from-port="0" to-layer="842" to-port="1"/>
		<edge from-layer="841" from-port="0" to-layer="842" to-port="2"/>
		<edge from-layer="842" from-port="3" to-layer="843" to-port="0"/>
		<edge from-layer="833" from-port="2" to-layer="844" to-port="0"/>
		<edge from-layer="843" from-port="1" to-layer="844" to-port="1"/>
		<edge from-layer="728" from-port="2" to-layer="847" to-port="0"/>
		<edge from-layer="847" from-port="1" to-layer="849" to-port="0"/>
		<edge from-layer="848" from-port="0" to-layer="849" to-port="1"/>
		<edge from-layer="849" from-port="2" to-layer="851" to-port="0"/>
		<edge from-layer="850" from-port="0" to-layer="851" to-port="1"/>
		<edge from-layer="851" from-port="2" to-layer="852" to-port="0"/>
		<edge from-layer="852" from-port="1" to-layer="855" to-port="0"/>
		<edge from-layer="853" from-port="0" to-layer="855" to-port="1"/>
		<edge from-layer="854" from-port="0" to-layer="855" to-port="2"/>
		<edge from-layer="855" from-port="3" to-layer="859" to-port="0"/>
		<edge from-layer="856" from-port="0" to-layer="859" to-port="1"/>
		<edge from-layer="857" from-port="0" to-layer="859" to-port="2"/>
		<edge from-layer="858" from-port="0" to-layer="859" to-port="3"/>
		<edge from-layer="859" from-port="4" to-layer="863" to-port="0"/>
		<edge from-layer="860" from-port="0" to-layer="863" to-port="1"/>
		<edge from-layer="861" from-port="0" to-layer="863" to-port="2"/>
		<edge from-layer="862" from-port="0" to-layer="863" to-port="3"/>
		<edge from-layer="846" from-port="0" to-layer="865" to-port="0"/>
		<edge from-layer="863" from-port="4" to-layer="865" to-port="1"/>
		<edge from-layer="864" from-port="0" to-layer="865" to-port="2"/>
		<edge from-layer="865" from-port="3" to-layer="866" to-port="0"/>
		<edge from-layer="866" from-port="1" to-layer="868" to-port="0"/>
		<edge from-layer="867" from-port="0" to-layer="868" to-port="1"/>
		<edge from-layer="868" from-port="2" to-layer="870" to-port="0"/>
		<edge from-layer="869" from-port="0" to-layer="870" to-port="1"/>
		<edge from-layer="870" from-port="2" to-layer="872" to-port="0"/>
		<edge from-layer="871" from-port="0" to-layer="872" to-port="1"/>
		<edge from-layer="872" from-port="2" to-layer="874" to-port="0"/>
		<edge from-layer="873" from-port="0" to-layer="874" to-port="1"/>
		<edge from-layer="859" from-port="4" to-layer="880" to-port="0"/>
		<edge from-layer="877" from-port="0" to-layer="880" to-port="1"/>
		<edge from-layer="878" from-port="0" to-layer="880" to-port="2"/>
		<edge from-layer="879" from-port="0" to-layer="880" to-port="3"/>
		<edge from-layer="876" from-port="0" to-layer="882" to-port="0"/>
		<edge from-layer="880" from-port="4" to-layer="882" to-port="1"/>
		<edge from-layer="881" from-port="0" to-layer="882" to-port="2"/>
		<edge from-layer="882" from-port="3" to-layer="883" to-port="0"/>
		<edge from-layer="883" from-port="1" to-layer="885" to-port="0"/>
		<edge from-layer="884" from-port="0" to-layer="885" to-port="1"/>
		<edge from-layer="885" from-port="2" to-layer="887" to-port="0"/>
		<edge from-layer="886" from-port="0" to-layer="887" to-port="1"/>
		<edge from-layer="887" from-port="2" to-layer="888" to-port="0"/>
		<edge from-layer="888" from-port="1" to-layer="890" to-port="0"/>
		<edge from-layer="889" from-port="0" to-layer="890" to-port="1"/>
		<edge from-layer="890" from-port="2" to-layer="892" to-port="0"/>
		<edge from-layer="891" from-port="0" to-layer="892" to-port="1"/>
		<edge from-layer="870" from-port="2" to-layer="893" to-port="0"/>
		<edge from-layer="893" from-port="1" to-layer="895" to-port="0"/>
		<edge from-layer="894" from-port="0" to-layer="895" to-port="1"/>
		<edge from-layer="895" from-port="2" to-layer="897" to-port="0"/>
		<edge from-layer="896" from-port="0" to-layer="897" to-port="1"/>
		<edge from-layer="892" from-port="2" to-layer="898" to-port="0"/>
		<edge from-layer="897" from-port="2" to-layer="898" to-port="1"/>
		<edge from-layer="898" from-port="2" to-layer="899" to-port="0"/>
		<edge from-layer="875" from-port="0" to-layer="900" to-port="0"/>
		<edge from-layer="899" from-port="1" to-layer="900" to-port="1"/>
		<edge from-layer="874" from-port="2" to-layer="901" to-port="0"/>
		<edge from-layer="900" from-port="2" to-layer="901" to-port="1"/>
		<edge from-layer="901" from-port="2" to-layer="903" to-port="0"/>
		<edge from-layer="902" from-port="0" to-layer="903" to-port="1"/>
		<edge from-layer="903" from-port="2" to-layer="905" to-port="0"/>
		<edge from-layer="904" from-port="0" to-layer="905" to-port="1"/>
		<edge from-layer="887" from-port="2" to-layer="907" to-port="0"/>
		<edge from-layer="906" from-port="0" to-layer="907" to-port="1"/>
		<edge from-layer="907" from-port="2" to-layer="909" to-port="0"/>
		<edge from-layer="908" from-port="0" to-layer="909" to-port="1"/>
		<edge from-layer="909" from-port="2" to-layer="910" to-port="0"/>
		<edge from-layer="900" from-port="2" to-layer="910" to-port="1"/>
		<edge from-layer="910" from-port="2" to-layer="912" to-port="0"/>
		<edge from-layer="911" from-port="0" to-layer="912" to-port="1"/>
		<edge from-layer="912" from-port="2" to-layer="914" to-port="0"/>
		<edge from-layer="913" from-port="0" to-layer="914" to-port="1"/>
		<edge from-layer="903" from-port="2" to-layer="916" to-port="0"/>
		<edge from-layer="915" from-port="0" to-layer="916" to-port="1"/>
		<edge from-layer="912" from-port="2" to-layer="918" to-port="0"/>
		<edge from-layer="917" from-port="0" to-layer="918" to-port="1"/>
		<edge from-layer="905" from-port="2" to-layer="919" to-port="0"/>
		<edge from-layer="914" from-port="2" to-layer="919" to-port="1"/>
		<edge from-layer="916" from-port="2" to-layer="919" to-port="2"/>
		<edge from-layer="918" from-port="2" to-layer="919" to-port="3"/>
		<edge from-layer="919" from-port="4" to-layer="920" to-port="0"/>
		<edge from-layer="920" from-port="1" to-layer="921" to-port="0"/>
		<edge from-layer="921" from-port="1" to-layer="923" to-port="0"/>
		<edge from-layer="922" from-port="0" to-layer="923" to-port="1"/>
		<edge from-layer="923" from-port="2" to-layer="925" to-port="0"/>
		<edge from-layer="924" from-port="0" to-layer="925" to-port="1"/>
		<edge from-layer="925" from-port="2" to-layer="927" to-port="0"/>
		<edge from-layer="926" from-port="0" to-layer="927" to-port="1"/>
		<edge from-layer="928" from-port="0" to-layer="930" to-port="0"/>
		<edge from-layer="923" from-port="2" to-layer="930" to-port="1"/>
		<edge from-layer="929" from-port="0" to-layer="930" to-port="2"/>
		<edge from-layer="927" from-port="2" to-layer="931" to-port="0"/>
		<edge from-layer="930" from-port="3" to-layer="931" to-port="1"/>
		<edge from-layer="931" from-port="2" to-layer="932" to-port="0"/>
		<edge from-layer="919" from-port="4" to-layer="933" to-port="0"/>
		<edge from-layer="932" from-port="1" to-layer="933" to-port="1"/>
		<edge from-layer="933" from-port="2" to-layer="934" to-port="0"/>
		<edge from-layer="934" from-port="1" to-layer="938" to-port="0"/>
		<edge from-layer="935" from-port="0" to-layer="938" to-port="1"/>
		<edge from-layer="936" from-port="0" to-layer="938" to-port="2"/>
		<edge from-layer="937" from-port="0" to-layer="938" to-port="3"/>
		<edge from-layer="938" from-port="4" to-layer="940" to-port="0"/>
		<edge from-layer="939" from-port="0" to-layer="940" to-port="1"/>
		<edge from-layer="940" from-port="2" to-layer="943" to-port="0"/>
		<edge from-layer="941" from-port="0" to-layer="943" to-port="1"/>
		<edge from-layer="942" from-port="0" to-layer="943" to-port="2"/>
		<edge from-layer="943" from-port="3" to-layer="944" to-port="0"/>
		<edge from-layer="933" from-port="2" to-layer="945" to-port="0"/>
		<edge from-layer="944" from-port="1" to-layer="945" to-port="1"/>
		<edge from-layer="845" from-port="0" to-layer="946" to-port="0"/>
		<edge from-layer="945" from-port="2" to-layer="946" to-port="1"/>
		<edge from-layer="938" from-port="4" to-layer="948" to-port="0"/>
		<edge from-layer="947" from-port="0" to-layer="948" to-port="1"/>
		<edge from-layer="948" from-port="2" to-layer="950" to-port="0"/>
		<edge from-layer="949" from-port="0" to-layer="950" to-port="1"/>
		<edge from-layer="950" from-port="2" to-layer="952" to-port="0"/>
		<edge from-layer="951" from-port="0" to-layer="952" to-port="1"/>
		<edge from-layer="952" from-port="2" to-layer="953" to-port="0"/>
		<edge from-layer="946" from-port="2" to-layer="954" to-port="0"/>
		<edge from-layer="953" from-port="1" to-layer="954" to-port="1"/>
		<edge from-layer="954" from-port="2" to-layer="956" to-port="0"/>
		<edge from-layer="955" from-port="0" to-layer="956" to-port="1"/>
		<edge from-layer="855" from-port="3" to-layer="960" to-port="0"/>
		<edge from-layer="957" from-port="0" to-layer="960" to-port="1"/>
		<edge from-layer="958" from-port="0" to-layer="960" to-port="2"/>
		<edge from-layer="959" from-port="0" to-layer="960" to-port="3"/>
		<edge from-layer="960" from-port="4" to-layer="962" to-port="0"/>
		<edge from-layer="961" from-port="0" to-layer="962" to-port="1"/>
		<edge from-layer="962" from-port="2" to-layer="965" to-port="0"/>
		<edge from-layer="963" from-port="0" to-layer="965" to-port="1"/>
		<edge from-layer="964" from-port="0" to-layer="965" to-port="2"/>
		<edge from-layer="965" from-port="3" to-layer="966" to-port="0"/>
		<edge from-layer="956" from-port="2" to-layer="967" to-port="0"/>
		<edge from-layer="966" from-port="1" to-layer="967" to-port="1"/>
		<edge from-layer="478" from-port="2" to-layer="968" to-port="0"/>
		<edge from-layer="600" from-port="2" to-layer="968" to-port="1"/>
		<edge from-layer="722" from-port="2" to-layer="968" to-port="2"/>
		<edge from-layer="844" from-port="2" to-layer="968" to-port="3"/>
		<edge from-layer="967" from-port="2" to-layer="968" to-port="4"/>
		<edge from-layer="968" from-port="5" to-layer="972" to-port="0"/>
		<edge from-layer="969" from-port="0" to-layer="972" to-port="1"/>
		<edge from-layer="970" from-port="0" to-layer="972" to-port="2"/>
		<edge from-layer="971" from-port="0" to-layer="972" to-port="3"/>
		<edge from-layer="2" from-port="0" to-layer="973" to-port="0"/>
		<edge from-layer="973" from-port="1" to-layer="976" to-port="0"/>
		<edge from-layer="974" from-port="0" to-layer="976" to-port="1"/>
		<edge from-layer="975" from-port="0" to-layer="976" to-port="2"/>
		<edge from-layer="976" from-port="3" to-layer="980" to-port="0"/>
		<edge from-layer="977" from-port="0" to-layer="980" to-port="1"/>
		<edge from-layer="978" from-port="0" to-layer="980" to-port="2"/>
		<edge from-layer="979" from-port="0" to-layer="980" to-port="3"/>
		<edge from-layer="980" from-port="4" to-layer="981" to-port="0"/>
		<edge from-layer="981" from-port="1" to-layer="983" to-port="0"/>
		<edge from-layer="982" from-port="0" to-layer="983" to-port="1"/>
		<edge from-layer="983" from-port="2" to-layer="986" to-port="0"/>
		<edge from-layer="984" from-port="0" to-layer="986" to-port="1"/>
		<edge from-layer="985" from-port="0" to-layer="986" to-port="2"/>
		<edge from-layer="986" from-port="3" to-layer="987" to-port="0"/>
		<edge from-layer="986" from-port="3" to-layer="987" to-port="1"/>
		<edge from-layer="972" from-port="4" to-layer="988" to-port="0"/>
		<edge from-layer="987" from-port="2" to-layer="989" to-port="0"/>
		<edge from-layer="988" from-port="1" to-layer="989" to-port="1"/>
		<edge from-layer="972" from-port="4" to-layer="990" to-port="0"/>
		<edge from-layer="989" from-port="2" to-layer="990" to-port="1"/>
		<edge from-layer="990" from-port="2" to-layer="993" to-port="0"/>
		<edge from-layer="991" from-port="0" to-layer="993" to-port="1"/>
		<edge from-layer="992" from-port="0" to-layer="993" to-port="2"/>
		<edge from-layer="993" from-port="5" to-layer="994" to-port="0"/>
		<edge from-layer="993" from-port="3" to-layer="994" to-port="1"/>
		<edge from-layer="993" from-port="6" to-layer="995" to-port="0"/>
		<edge from-layer="993" from-port="4" to-layer="995" to-port="1"/>
		<edge from-layer="994" from-port="2" to-layer="996" to-port="0"/>
		<edge from-layer="995" from-port="2" to-layer="996" to-port="1"/>
		<edge from-layer="996" from-port="2" to-layer="997" to-port="0"/>
		<edge from-layer="994" from-port="2" to-layer="997" to-port="1"/>
		<edge from-layer="997" from-port="2" to-layer="998" to-port="0"/>
		<edge from-layer="995" from-port="2" to-layer="998" to-port="1"/>
		<edge from-layer="362" from-port="2" to-layer="1000" to-port="0"/>
		<edge from-layer="999" from-port="0" to-layer="1000" to-port="1"/>
		<edge from-layer="1000" from-port="2" to-layer="1002" to-port="0"/>
		<edge from-layer="1001" from-port="0" to-layer="1002" to-port="1"/>
		<edge from-layer="1002" from-port="2" to-layer="1003" to-port="0"/>
		<edge from-layer="1003" from-port="1" to-layer="1005" to-port="0"/>
		<edge from-layer="1004" from-port="0" to-layer="1005" to-port="1"/>
		<edge from-layer="1005" from-port="2" to-layer="1007" to-port="0"/>
		<edge from-layer="1006" from-port="0" to-layer="1007" to-port="1"/>
		<edge from-layer="1007" from-port="2" to-layer="1008" to-port="0"/>
		<edge from-layer="1008" from-port="1" to-layer="1010" to-port="0"/>
		<edge from-layer="1009" from-port="0" to-layer="1010" to-port="1"/>
		<edge from-layer="1010" from-port="2" to-layer="1012" to-port="0"/>
		<edge from-layer="1011" from-port="0" to-layer="1012" to-port="1"/>
		<edge from-layer="1012" from-port="2" to-layer="1013" to-port="0"/>
		<edge from-layer="1013" from-port="1" to-layer="1015" to-port="0"/>
		<edge from-layer="1014" from-port="0" to-layer="1015" to-port="1"/>
		<edge from-layer="1015" from-port="2" to-layer="1017" to-port="0"/>
		<edge from-layer="1016" from-port="0" to-layer="1017" to-port="1"/>
		<edge from-layer="1017" from-port="2" to-layer="1018" to-port="0"/>
		<edge from-layer="1018" from-port="1" to-layer="1020" to-port="0"/>
		<edge from-layer="1019" from-port="0" to-layer="1020" to-port="1"/>
		<edge from-layer="1020" from-port="2" to-layer="1022" to-port="0"/>
		<edge from-layer="1021" from-port="0" to-layer="1022" to-port="1"/>
		<edge from-layer="1022" from-port="2" to-layer="1024" to-port="0"/>
		<edge from-layer="1023" from-port="0" to-layer="1024" to-port="1"/>
		<edge from-layer="1022" from-port="2" to-layer="1025" to-port="0"/>
		<edge from-layer="1025" from-port="1" to-layer="1028" to-port="0"/>
		<edge from-layer="1026" from-port="0" to-layer="1028" to-port="1"/>
		<edge from-layer="1027" from-port="0" to-layer="1028" to-port="2"/>
		<edge from-layer="1028" from-port="3" to-layer="1032" to-port="0"/>
		<edge from-layer="1029" from-port="0" to-layer="1032" to-port="1"/>
		<edge from-layer="1030" from-port="0" to-layer="1032" to-port="2"/>
		<edge from-layer="1031" from-port="0" to-layer="1032" to-port="3"/>
		<edge from-layer="1032" from-port="4" to-layer="1034" to-port="0"/>
		<edge from-layer="1033" from-port="0" to-layer="1034" to-port="1"/>
		<edge from-layer="1034" from-port="2" to-layer="1037" to-port="0"/>
		<edge from-layer="1035" from-port="0" to-layer="1037" to-port="1"/>
		<edge from-layer="1036" from-port="0" to-layer="1037" to-port="2"/>
		<edge from-layer="1037" from-port="3" to-layer="1038" to-port="0"/>
		<edge from-layer="1024" from-port="2" to-layer="1039" to-port="0"/>
		<edge from-layer="1038" from-port="1" to-layer="1039" to-port="1"/>
		<edge from-layer="484" from-port="2" to-layer="1041" to-port="0"/>
		<edge from-layer="1040" from-port="0" to-layer="1041" to-port="1"/>
		<edge from-layer="1041" from-port="2" to-layer="1043" to-port="0"/>
		<edge from-layer="1042" from-port="0" to-layer="1043" to-port="1"/>
		<edge from-layer="1043" from-port="2" to-layer="1044" to-port="0"/>
		<edge from-layer="1044" from-port="1" to-layer="1046" to-port="0"/>
		<edge from-layer="1045" from-port="0" to-layer="1046" to-port="1"/>
		<edge from-layer="1046" from-port="2" to-layer="1048" to-port="0"/>
		<edge from-layer="1047" from-port="0" to-layer="1048" to-port="1"/>
		<edge from-layer="1048" from-port="2" to-layer="1049" to-port="0"/>
		<edge from-layer="1049" from-port="1" to-layer="1051" to-port="0"/>
		<edge from-layer="1050" from-port="0" to-layer="1051" to-port="1"/>
		<edge from-layer="1051" from-port="2" to-layer="1053" to-port="0"/>
		<edge from-layer="1052" from-port="0" to-layer="1053" to-port="1"/>
		<edge from-layer="1053" from-port="2" to-layer="1054" to-port="0"/>
		<edge from-layer="1054" from-port="1" to-layer="1056" to-port="0"/>
		<edge from-layer="1055" from-port="0" to-layer="1056" to-port="1"/>
		<edge from-layer="1056" from-port="2" to-layer="1058" to-port="0"/>
		<edge from-layer="1057" from-port="0" to-layer="1058" to-port="1"/>
		<edge from-layer="1058" from-port="2" to-layer="1059" to-port="0"/>
		<edge from-layer="1059" from-port="1" to-layer="1061" to-port="0"/>
		<edge from-layer="1060" from-port="0" to-layer="1061" to-port="1"/>
		<edge from-layer="1061" from-port="2" to-layer="1063" to-port="0"/>
		<edge from-layer="1062" from-port="0" to-layer="1063" to-port="1"/>
		<edge from-layer="1063" from-port="2" to-layer="1065" to-port="0"/>
		<edge from-layer="1064" from-port="0" to-layer="1065" to-port="1"/>
		<edge from-layer="1063" from-port="2" to-layer="1066" to-port="0"/>
		<edge from-layer="1066" from-port="1" to-layer="1069" to-port="0"/>
		<edge from-layer="1067" from-port="0" to-layer="1069" to-port="1"/>
		<edge from-layer="1068" from-port="0" to-layer="1069" to-port="2"/>
		<edge from-layer="1069" from-port="3" to-layer="1073" to-port="0"/>
		<edge from-layer="1070" from-port="0" to-layer="1073" to-port="1"/>
		<edge from-layer="1071" from-port="0" to-layer="1073" to-port="2"/>
		<edge from-layer="1072" from-port="0" to-layer="1073" to-port="3"/>
		<edge from-layer="1073" from-port="4" to-layer="1075" to-port="0"/>
		<edge from-layer="1074" from-port="0" to-layer="1075" to-port="1"/>
		<edge from-layer="1075" from-port="2" to-layer="1078" to-port="0"/>
		<edge from-layer="1076" from-port="0" to-layer="1078" to-port="1"/>
		<edge from-layer="1077" from-port="0" to-layer="1078" to-port="2"/>
		<edge from-layer="1078" from-port="3" to-layer="1079" to-port="0"/>
		<edge from-layer="1065" from-port="2" to-layer="1080" to-port="0"/>
		<edge from-layer="1079" from-port="1" to-layer="1080" to-port="1"/>
		<edge from-layer="606" from-port="2" to-layer="1082" to-port="0"/>
		<edge from-layer="1081" from-port="0" to-layer="1082" to-port="1"/>
		<edge from-layer="1082" from-port="2" to-layer="1084" to-port="0"/>
		<edge from-layer="1083" from-port="0" to-layer="1084" to-port="1"/>
		<edge from-layer="1084" from-port="2" to-layer="1085" to-port="0"/>
		<edge from-layer="1085" from-port="1" to-layer="1087" to-port="0"/>
		<edge from-layer="1086" from-port="0" to-layer="1087" to-port="1"/>
		<edge from-layer="1087" from-port="2" to-layer="1089" to-port="0"/>
		<edge from-layer="1088" from-port="0" to-layer="1089" to-port="1"/>
		<edge from-layer="1089" from-port="2" to-layer="1090" to-port="0"/>
		<edge from-layer="1090" from-port="1" to-layer="1092" to-port="0"/>
		<edge from-layer="1091" from-port="0" to-layer="1092" to-port="1"/>
		<edge from-layer="1092" from-port="2" to-layer="1094" to-port="0"/>
		<edge from-layer="1093" from-port="0" to-layer="1094" to-port="1"/>
		<edge from-layer="1094" from-port="2" to-layer="1095" to-port="0"/>
		<edge from-layer="1095" from-port="1" to-layer="1097" to-port="0"/>
		<edge from-layer="1096" from-port="0" to-layer="1097" to-port="1"/>
		<edge from-layer="1097" from-port="2" to-layer="1099" to-port="0"/>
		<edge from-layer="1098" from-port="0" to-layer="1099" to-port="1"/>
		<edge from-layer="1099" from-port="2" to-layer="1100" to-port="0"/>
		<edge from-layer="1100" from-port="1" to-layer="1102" to-port="0"/>
		<edge from-layer="1101" from-port="0" to-layer="1102" to-port="1"/>
		<edge from-layer="1102" from-port="2" to-layer="1104" to-port="0"/>
		<edge from-layer="1103" from-port="0" to-layer="1104" to-port="1"/>
		<edge from-layer="1104" from-port="2" to-layer="1106" to-port="0"/>
		<edge from-layer="1105" from-port="0" to-layer="1106" to-port="1"/>
		<edge from-layer="1104" from-port="2" to-layer="1107" to-port="0"/>
		<edge from-layer="1107" from-port="1" to-layer="1110" to-port="0"/>
		<edge from-layer="1108" from-port="0" to-layer="1110" to-port="1"/>
		<edge from-layer="1109" from-port="0" to-layer="1110" to-port="2"/>
		<edge from-layer="1110" from-port="3" to-layer="1114" to-port="0"/>
		<edge from-layer="1111" from-port="0" to-layer="1114" to-port="1"/>
		<edge from-layer="1112" from-port="0" to-layer="1114" to-port="2"/>
		<edge from-layer="1113" from-port="0" to-layer="1114" to-port="3"/>
		<edge from-layer="1114" from-port="4" to-layer="1116" to-port="0"/>
		<edge from-layer="1115" from-port="0" to-layer="1116" to-port="1"/>
		<edge from-layer="1116" from-port="2" to-layer="1119" to-port="0"/>
		<edge from-layer="1117" from-port="0" to-layer="1119" to-port="1"/>
		<edge from-layer="1118" from-port="0" to-layer="1119" to-port="2"/>
		<edge from-layer="1119" from-port="3" to-layer="1120" to-port="0"/>
		<edge from-layer="1106" from-port="2" to-layer="1121" to-port="0"/>
		<edge from-layer="1120" from-port="1" to-layer="1121" to-port="1"/>
		<edge from-layer="728" from-port="2" to-layer="1123" to-port="0"/>
		<edge from-layer="1122" from-port="0" to-layer="1123" to-port="1"/>
		<edge from-layer="1123" from-port="2" to-layer="1125" to-port="0"/>
		<edge from-layer="1124" from-port="0" to-layer="1125" to-port="1"/>
		<edge from-layer="1125" from-port="2" to-layer="1126" to-port="0"/>
		<edge from-layer="1126" from-port="1" to-layer="1128" to-port="0"/>
		<edge from-layer="1127" from-port="0" to-layer="1128" to-port="1"/>
		<edge from-layer="1128" from-port="2" to-layer="1130" to-port="0"/>
		<edge from-layer="1129" from-port="0" to-layer="1130" to-port="1"/>
		<edge from-layer="1130" from-port="2" to-layer="1131" to-port="0"/>
		<edge from-layer="1131" from-port="1" to-layer="1133" to-port="0"/>
		<edge from-layer="1132" from-port="0" to-layer="1133" to-port="1"/>
		<edge from-layer="1133" from-port="2" to-layer="1135" to-port="0"/>
		<edge from-layer="1134" from-port="0" to-layer="1135" to-port="1"/>
		<edge from-layer="1135" from-port="2" to-layer="1136" to-port="0"/>
		<edge from-layer="1136" from-port="1" to-layer="1138" to-port="0"/>
		<edge from-layer="1137" from-port="0" to-layer="1138" to-port="1"/>
		<edge from-layer="1138" from-port="2" to-layer="1140" to-port="0"/>
		<edge from-layer="1139" from-port="0" to-layer="1140" to-port="1"/>
		<edge from-layer="1140" from-port="2" to-layer="1141" to-port="0"/>
		<edge from-layer="1141" from-port="1" to-layer="1143" to-port="0"/>
		<edge from-layer="1142" from-port="0" to-layer="1143" to-port="1"/>
		<edge from-layer="1143" from-port="2" to-layer="1145" to-port="0"/>
		<edge from-layer="1144" from-port="0" to-layer="1145" to-port="1"/>
		<edge from-layer="1145" from-port="2" to-layer="1147" to-port="0"/>
		<edge from-layer="1146" from-port="0" to-layer="1147" to-port="1"/>
		<edge from-layer="1145" from-port="2" to-layer="1148" to-port="0"/>
		<edge from-layer="1148" from-port="1" to-layer="1151" to-port="0"/>
		<edge from-layer="1149" from-port="0" to-layer="1151" to-port="1"/>
		<edge from-layer="1150" from-port="0" to-layer="1151" to-port="2"/>
		<edge from-layer="1151" from-port="3" to-layer="1155" to-port="0"/>
		<edge from-layer="1152" from-port="0" to-layer="1155" to-port="1"/>
		<edge from-layer="1153" from-port="0" to-layer="1155" to-port="2"/>
		<edge from-layer="1154" from-port="0" to-layer="1155" to-port="3"/>
		<edge from-layer="1155" from-port="4" to-layer="1157" to-port="0"/>
		<edge from-layer="1156" from-port="0" to-layer="1157" to-port="1"/>
		<edge from-layer="1157" from-port="2" to-layer="1160" to-port="0"/>
		<edge from-layer="1158" from-port="0" to-layer="1160" to-port="1"/>
		<edge from-layer="1159" from-port="0" to-layer="1160" to-port="2"/>
		<edge from-layer="1160" from-port="3" to-layer="1161" to-port="0"/>
		<edge from-layer="1147" from-port="2" to-layer="1162" to-port="0"/>
		<edge from-layer="1161" from-port="1" to-layer="1162" to-port="1"/>
		<edge from-layer="851" from-port="2" to-layer="1164" to-port="0"/>
		<edge from-layer="1163" from-port="0" to-layer="1164" to-port="1"/>
		<edge from-layer="1164" from-port="2" to-layer="1166" to-port="0"/>
		<edge from-layer="1165" from-port="0" to-layer="1166" to-port="1"/>
		<edge from-layer="1166" from-port="2" to-layer="1167" to-port="0"/>
		<edge from-layer="1167" from-port="1" to-layer="1169" to-port="0"/>
		<edge from-layer="1168" from-port="0" to-layer="1169" to-port="1"/>
		<edge from-layer="1169" from-port="2" to-layer="1171" to-port="0"/>
		<edge from-layer="1170" from-port="0" to-layer="1171" to-port="1"/>
		<edge from-layer="1171" from-port="2" to-layer="1172" to-port="0"/>
		<edge from-layer="1172" from-port="1" to-layer="1174" to-port="0"/>
		<edge from-layer="1173" from-port="0" to-layer="1174" to-port="1"/>
		<edge from-layer="1174" from-port="2" to-layer="1176" to-port="0"/>
		<edge from-layer="1175" from-port="0" to-layer="1176" to-port="1"/>
		<edge from-layer="1176" from-port="2" to-layer="1177" to-port="0"/>
		<edge from-layer="1177" from-port="1" to-layer="1179" to-port="0"/>
		<edge from-layer="1178" from-port="0" to-layer="1179" to-port="1"/>
		<edge from-layer="1179" from-port="2" to-layer="1181" to-port="0"/>
		<edge from-layer="1180" from-port="0" to-layer="1181" to-port="1"/>
		<edge from-layer="1181" from-port="2" to-layer="1182" to-port="0"/>
		<edge from-layer="1182" from-port="1" to-layer="1184" to-port="0"/>
		<edge from-layer="1183" from-port="0" to-layer="1184" to-port="1"/>
		<edge from-layer="1184" from-port="2" to-layer="1186" to-port="0"/>
		<edge from-layer="1185" from-port="0" to-layer="1186" to-port="1"/>
		<edge from-layer="1186" from-port="2" to-layer="1188" to-port="0"/>
		<edge from-layer="1187" from-port="0" to-layer="1188" to-port="1"/>
		<edge from-layer="1186" from-port="2" to-layer="1189" to-port="0"/>
		<edge from-layer="1189" from-port="1" to-layer="1192" to-port="0"/>
		<edge from-layer="1190" from-port="0" to-layer="1192" to-port="1"/>
		<edge from-layer="1191" from-port="0" to-layer="1192" to-port="2"/>
		<edge from-layer="1192" from-port="3" to-layer="1196" to-port="0"/>
		<edge from-layer="1193" from-port="0" to-layer="1196" to-port="1"/>
		<edge from-layer="1194" from-port="0" to-layer="1196" to-port="2"/>
		<edge from-layer="1195" from-port="0" to-layer="1196" to-port="3"/>
		<edge from-layer="1196" from-port="4" to-layer="1198" to-port="0"/>
		<edge from-layer="1197" from-port="0" to-layer="1198" to-port="1"/>
		<edge from-layer="1198" from-port="2" to-layer="1201" to-port="0"/>
		<edge from-layer="1199" from-port="0" to-layer="1201" to-port="1"/>
		<edge from-layer="1200" from-port="0" to-layer="1201" to-port="2"/>
		<edge from-layer="1201" from-port="3" to-layer="1202" to-port="0"/>
		<edge from-layer="1188" from-port="2" to-layer="1203" to-port="0"/>
		<edge from-layer="1202" from-port="1" to-layer="1203" to-port="1"/>
		<edge from-layer="1039" from-port="2" to-layer="1204" to-port="0"/>
		<edge from-layer="1080" from-port="2" to-layer="1204" to-port="1"/>
		<edge from-layer="1121" from-port="2" to-layer="1204" to-port="2"/>
		<edge from-layer="1162" from-port="2" to-layer="1204" to-port="3"/>
		<edge from-layer="1203" from-port="2" to-layer="1204" to-port="4"/>
		<edge from-layer="998" from-port="2" to-layer="1205" to-port="0"/>
		<edge from-layer="1204" from-port="5" to-layer="1205" to-port="1"/>
		<edge from-layer="1205" from-port="2" to-layer="1207" to-port="0"/>
		<edge from-layer="1206" from-port="0" to-layer="1207" to-port="1"/>
		<edge from-layer="362" from-port="2" to-layer="1209" to-port="0"/>
		<edge from-layer="1208" from-port="0" to-layer="1209" to-port="1"/>
		<edge from-layer="1209" from-port="2" to-layer="1211" to-port="0"/>
		<edge from-layer="1210" from-port="0" to-layer="1211" to-port="1"/>
		<edge from-layer="1211" from-port="2" to-layer="1212" to-port="0"/>
		<edge from-layer="1212" from-port="1" to-layer="1214" to-port="0"/>
		<edge from-layer="1213" from-port="0" to-layer="1214" to-port="1"/>
		<edge from-layer="1214" from-port="2" to-layer="1216" to-port="0"/>
		<edge from-layer="1215" from-port="0" to-layer="1216" to-port="1"/>
		<edge from-layer="1216" from-port="2" to-layer="1217" to-port="0"/>
		<edge from-layer="1217" from-port="1" to-layer="1219" to-port="0"/>
		<edge from-layer="1218" from-port="0" to-layer="1219" to-port="1"/>
		<edge from-layer="1219" from-port="2" to-layer="1221" to-port="0"/>
		<edge from-layer="1220" from-port="0" to-layer="1221" to-port="1"/>
		<edge from-layer="1221" from-port="2" to-layer="1222" to-port="0"/>
		<edge from-layer="1222" from-port="1" to-layer="1224" to-port="0"/>
		<edge from-layer="1223" from-port="0" to-layer="1224" to-port="1"/>
		<edge from-layer="1224" from-port="2" to-layer="1226" to-port="0"/>
		<edge from-layer="1225" from-port="0" to-layer="1226" to-port="1"/>
		<edge from-layer="1226" from-port="2" to-layer="1227" to-port="0"/>
		<edge from-layer="1227" from-port="1" to-layer="1229" to-port="0"/>
		<edge from-layer="1228" from-port="0" to-layer="1229" to-port="1"/>
		<edge from-layer="1229" from-port="2" to-layer="1231" to-port="0"/>
		<edge from-layer="1230" from-port="0" to-layer="1231" to-port="1"/>
		<edge from-layer="1231" from-port="2" to-layer="1233" to-port="0"/>
		<edge from-layer="1232" from-port="0" to-layer="1233" to-port="1"/>
		<edge from-layer="1231" from-port="2" to-layer="1234" to-port="0"/>
		<edge from-layer="1234" from-port="1" to-layer="1237" to-port="0"/>
		<edge from-layer="1235" from-port="0" to-layer="1237" to-port="1"/>
		<edge from-layer="1236" from-port="0" to-layer="1237" to-port="2"/>
		<edge from-layer="1237" from-port="3" to-layer="1241" to-port="0"/>
		<edge from-layer="1238" from-port="0" to-layer="1241" to-port="1"/>
		<edge from-layer="1239" from-port="0" to-layer="1241" to-port="2"/>
		<edge from-layer="1240" from-port="0" to-layer="1241" to-port="3"/>
		<edge from-layer="1241" from-port="4" to-layer="1243" to-port="0"/>
		<edge from-layer="1242" from-port="0" to-layer="1243" to-port="1"/>
		<edge from-layer="1243" from-port="2" to-layer="1246" to-port="0"/>
		<edge from-layer="1244" from-port="0" to-layer="1246" to-port="1"/>
		<edge from-layer="1245" from-port="0" to-layer="1246" to-port="2"/>
		<edge from-layer="1246" from-port="3" to-layer="1247" to-port="0"/>
		<edge from-layer="1233" from-port="2" to-layer="1248" to-port="0"/>
		<edge from-layer="1247" from-port="1" to-layer="1248" to-port="1"/>
		<edge from-layer="1248" from-port="2" to-layer="1249" to-port="0"/>
		<edge from-layer="484" from-port="2" to-layer="1251" to-port="0"/>
		<edge from-layer="1250" from-port="0" to-layer="1251" to-port="1"/>
		<edge from-layer="1251" from-port="2" to-layer="1253" to-port="0"/>
		<edge from-layer="1252" from-port="0" to-layer="1253" to-port="1"/>
		<edge from-layer="1253" from-port="2" to-layer="1254" to-port="0"/>
		<edge from-layer="1254" from-port="1" to-layer="1256" to-port="0"/>
		<edge from-layer="1255" from-port="0" to-layer="1256" to-port="1"/>
		<edge from-layer="1256" from-port="2" to-layer="1258" to-port="0"/>
		<edge from-layer="1257" from-port="0" to-layer="1258" to-port="1"/>
		<edge from-layer="1258" from-port="2" to-layer="1259" to-port="0"/>
		<edge from-layer="1259" from-port="1" to-layer="1261" to-port="0"/>
		<edge from-layer="1260" from-port="0" to-layer="1261" to-port="1"/>
		<edge from-layer="1261" from-port="2" to-layer="1263" to-port="0"/>
		<edge from-layer="1262" from-port="0" to-layer="1263" to-port="1"/>
		<edge from-layer="1263" from-port="2" to-layer="1264" to-port="0"/>
		<edge from-layer="1264" from-port="1" to-layer="1266" to-port="0"/>
		<edge from-layer="1265" from-port="0" to-layer="1266" to-port="1"/>
		<edge from-layer="1266" from-port="2" to-layer="1268" to-port="0"/>
		<edge from-layer="1267" from-port="0" to-layer="1268" to-port="1"/>
		<edge from-layer="1268" from-port="2" to-layer="1269" to-port="0"/>
		<edge from-layer="1269" from-port="1" to-layer="1271" to-port="0"/>
		<edge from-layer="1270" from-port="0" to-layer="1271" to-port="1"/>
		<edge from-layer="1271" from-port="2" to-layer="1273" to-port="0"/>
		<edge from-layer="1272" from-port="0" to-layer="1273" to-port="1"/>
		<edge from-layer="1273" from-port="2" to-layer="1275" to-port="0"/>
		<edge from-layer="1274" from-port="0" to-layer="1275" to-port="1"/>
		<edge from-layer="1273" from-port="2" to-layer="1276" to-port="0"/>
		<edge from-layer="1276" from-port="1" to-layer="1279" to-port="0"/>
		<edge from-layer="1277" from-port="0" to-layer="1279" to-port="1"/>
		<edge from-layer="1278" from-port="0" to-layer="1279" to-port="2"/>
		<edge from-layer="1279" from-port="3" to-layer="1283" to-port="0"/>
		<edge from-layer="1280" from-port="0" to-layer="1283" to-port="1"/>
		<edge from-layer="1281" from-port="0" to-layer="1283" to-port="2"/>
		<edge from-layer="1282" from-port="0" to-layer="1283" to-port="3"/>
		<edge from-layer="1283" from-port="4" to-layer="1285" to-port="0"/>
		<edge from-layer="1284" from-port="0" to-layer="1285" to-port="1"/>
		<edge from-layer="1285" from-port="2" to-layer="1288" to-port="0"/>
		<edge from-layer="1286" from-port="0" to-layer="1288" to-port="1"/>
		<edge from-layer="1287" from-port="0" to-layer="1288" to-port="2"/>
		<edge from-layer="1288" from-port="3" to-layer="1289" to-port="0"/>
		<edge from-layer="1275" from-port="2" to-layer="1290" to-port="0"/>
		<edge from-layer="1289" from-port="1" to-layer="1290" to-port="1"/>
		<edge from-layer="1290" from-port="2" to-layer="1291" to-port="0"/>
		<edge from-layer="606" from-port="2" to-layer="1293" to-port="0"/>
		<edge from-layer="1292" from-port="0" to-layer="1293" to-port="1"/>
		<edge from-layer="1293" from-port="2" to-layer="1295" to-port="0"/>
		<edge from-layer="1294" from-port="0" to-layer="1295" to-port="1"/>
		<edge from-layer="1295" from-port="2" to-layer="1296" to-port="0"/>
		<edge from-layer="1296" from-port="1" to-layer="1298" to-port="0"/>
		<edge from-layer="1297" from-port="0" to-layer="1298" to-port="1"/>
		<edge from-layer="1298" from-port="2" to-layer="1300" to-port="0"/>
		<edge from-layer="1299" from-port="0" to-layer="1300" to-port="1"/>
		<edge from-layer="1300" from-port="2" to-layer="1301" to-port="0"/>
		<edge from-layer="1301" from-port="1" to-layer="1303" to-port="0"/>
		<edge from-layer="1302" from-port="0" to-layer="1303" to-port="1"/>
		<edge from-layer="1303" from-port="2" to-layer="1305" to-port="0"/>
		<edge from-layer="1304" from-port="0" to-layer="1305" to-port="1"/>
		<edge from-layer="1305" from-port="2" to-layer="1306" to-port="0"/>
		<edge from-layer="1306" from-port="1" to-layer="1308" to-port="0"/>
		<edge from-layer="1307" from-port="0" to-layer="1308" to-port="1"/>
		<edge from-layer="1308" from-port="2" to-layer="1310" to-port="0"/>
		<edge from-layer="1309" from-port="0" to-layer="1310" to-port="1"/>
		<edge from-layer="1310" from-port="2" to-layer="1311" to-port="0"/>
		<edge from-layer="1311" from-port="1" to-layer="1313" to-port="0"/>
		<edge from-layer="1312" from-port="0" to-layer="1313" to-port="1"/>
		<edge from-layer="1313" from-port="2" to-layer="1315" to-port="0"/>
		<edge from-layer="1314" from-port="0" to-layer="1315" to-port="1"/>
		<edge from-layer="1315" from-port="2" to-layer="1317" to-port="0"/>
		<edge from-layer="1316" from-port="0" to-layer="1317" to-port="1"/>
		<edge from-layer="1315" from-port="2" to-layer="1318" to-port="0"/>
		<edge from-layer="1318" from-port="1" to-layer="1321" to-port="0"/>
		<edge from-layer="1319" from-port="0" to-layer="1321" to-port="1"/>
		<edge from-layer="1320" from-port="0" to-layer="1321" to-port="2"/>
		<edge from-layer="1321" from-port="3" to-layer="1325" to-port="0"/>
		<edge from-layer="1322" from-port="0" to-layer="1325" to-port="1"/>
		<edge from-layer="1323" from-port="0" to-layer="1325" to-port="2"/>
		<edge from-layer="1324" from-port="0" to-layer="1325" to-port="3"/>
		<edge from-layer="1325" from-port="4" to-layer="1327" to-port="0"/>
		<edge from-layer="1326" from-port="0" to-layer="1327" to-port="1"/>
		<edge from-layer="1327" from-port="2" to-layer="1330" to-port="0"/>
		<edge from-layer="1328" from-port="0" to-layer="1330" to-port="1"/>
		<edge from-layer="1329" from-port="0" to-layer="1330" to-port="2"/>
		<edge from-layer="1330" from-port="3" to-layer="1331" to-port="0"/>
		<edge from-layer="1317" from-port="2" to-layer="1332" to-port="0"/>
		<edge from-layer="1331" from-port="1" to-layer="1332" to-port="1"/>
		<edge from-layer="1332" from-port="2" to-layer="1333" to-port="0"/>
		<edge from-layer="728" from-port="2" to-layer="1335" to-port="0"/>
		<edge from-layer="1334" from-port="0" to-layer="1335" to-port="1"/>
		<edge from-layer="1335" from-port="2" to-layer="1337" to-port="0"/>
		<edge from-layer="1336" from-port="0" to-layer="1337" to-port="1"/>
		<edge from-layer="1337" from-port="2" to-layer="1338" to-port="0"/>
		<edge from-layer="1338" from-port="1" to-layer="1340" to-port="0"/>
		<edge from-layer="1339" from-port="0" to-layer="1340" to-port="1"/>
		<edge from-layer="1340" from-port="2" to-layer="1342" to-port="0"/>
		<edge from-layer="1341" from-port="0" to-layer="1342" to-port="1"/>
		<edge from-layer="1342" from-port="2" to-layer="1343" to-port="0"/>
		<edge from-layer="1343" from-port="1" to-layer="1345" to-port="0"/>
		<edge from-layer="1344" from-port="0" to-layer="1345" to-port="1"/>
		<edge from-layer="1345" from-port="2" to-layer="1347" to-port="0"/>
		<edge from-layer="1346" from-port="0" to-layer="1347" to-port="1"/>
		<edge from-layer="1347" from-port="2" to-layer="1348" to-port="0"/>
		<edge from-layer="1348" from-port="1" to-layer="1350" to-port="0"/>
		<edge from-layer="1349" from-port="0" to-layer="1350" to-port="1"/>
		<edge from-layer="1350" from-port="2" to-layer="1352" to-port="0"/>
		<edge from-layer="1351" from-port="0" to-layer="1352" to-port="1"/>
		<edge from-layer="1352" from-port="2" to-layer="1353" to-port="0"/>
		<edge from-layer="1353" from-port="1" to-layer="1355" to-port="0"/>
		<edge from-layer="1354" from-port="0" to-layer="1355" to-port="1"/>
		<edge from-layer="1355" from-port="2" to-layer="1357" to-port="0"/>
		<edge from-layer="1356" from-port="0" to-layer="1357" to-port="1"/>
		<edge from-layer="1357" from-port="2" to-layer="1359" to-port="0"/>
		<edge from-layer="1358" from-port="0" to-layer="1359" to-port="1"/>
		<edge from-layer="1357" from-port="2" to-layer="1360" to-port="0"/>
		<edge from-layer="1360" from-port="1" to-layer="1363" to-port="0"/>
		<edge from-layer="1361" from-port="0" to-layer="1363" to-port="1"/>
		<edge from-layer="1362" from-port="0" to-layer="1363" to-port="2"/>
		<edge from-layer="1363" from-port="3" to-layer="1367" to-port="0"/>
		<edge from-layer="1364" from-port="0" to-layer="1367" to-port="1"/>
		<edge from-layer="1365" from-port="0" to-layer="1367" to-port="2"/>
		<edge from-layer="1366" from-port="0" to-layer="1367" to-port="3"/>
		<edge from-layer="1367" from-port="4" to-layer="1369" to-port="0"/>
		<edge from-layer="1368" from-port="0" to-layer="1369" to-port="1"/>
		<edge from-layer="1369" from-port="2" to-layer="1372" to-port="0"/>
		<edge from-layer="1370" from-port="0" to-layer="1372" to-port="1"/>
		<edge from-layer="1371" from-port="0" to-layer="1372" to-port="2"/>
		<edge from-layer="1372" from-port="3" to-layer="1373" to-port="0"/>
		<edge from-layer="1359" from-port="2" to-layer="1374" to-port="0"/>
		<edge from-layer="1373" from-port="1" to-layer="1374" to-port="1"/>
		<edge from-layer="1374" from-port="2" to-layer="1375" to-port="0"/>
		<edge from-layer="851" from-port="2" to-layer="1377" to-port="0"/>
		<edge from-layer="1376" from-port="0" to-layer="1377" to-port="1"/>
		<edge from-layer="1377" from-port="2" to-layer="1379" to-port="0"/>
		<edge from-layer="1378" from-port="0" to-layer="1379" to-port="1"/>
		<edge from-layer="1379" from-port="2" to-layer="1380" to-port="0"/>
		<edge from-layer="1380" from-port="1" to-layer="1382" to-port="0"/>
		<edge from-layer="1381" from-port="0" to-layer="1382" to-port="1"/>
		<edge from-layer="1382" from-port="2" to-layer="1384" to-port="0"/>
		<edge from-layer="1383" from-port="0" to-layer="1384" to-port="1"/>
		<edge from-layer="1384" from-port="2" to-layer="1385" to-port="0"/>
		<edge from-layer="1385" from-port="1" to-layer="1387" to-port="0"/>
		<edge from-layer="1386" from-port="0" to-layer="1387" to-port="1"/>
		<edge from-layer="1387" from-port="2" to-layer="1389" to-port="0"/>
		<edge from-layer="1388" from-port="0" to-layer="1389" to-port="1"/>
		<edge from-layer="1389" from-port="2" to-layer="1390" to-port="0"/>
		<edge from-layer="1390" from-port="1" to-layer="1392" to-port="0"/>
		<edge from-layer="1391" from-port="0" to-layer="1392" to-port="1"/>
		<edge from-layer="1392" from-port="2" to-layer="1394" to-port="0"/>
		<edge from-layer="1393" from-port="0" to-layer="1394" to-port="1"/>
		<edge from-layer="1394" from-port="2" to-layer="1395" to-port="0"/>
		<edge from-layer="1395" from-port="1" to-layer="1397" to-port="0"/>
		<edge from-layer="1396" from-port="0" to-layer="1397" to-port="1"/>
		<edge from-layer="1397" from-port="2" to-layer="1399" to-port="0"/>
		<edge from-layer="1398" from-port="0" to-layer="1399" to-port="1"/>
		<edge from-layer="1399" from-port="2" to-layer="1401" to-port="0"/>
		<edge from-layer="1400" from-port="0" to-layer="1401" to-port="1"/>
		<edge from-layer="1399" from-port="2" to-layer="1402" to-port="0"/>
		<edge from-layer="1402" from-port="1" to-layer="1405" to-port="0"/>
		<edge from-layer="1403" from-port="0" to-layer="1405" to-port="1"/>
		<edge from-layer="1404" from-port="0" to-layer="1405" to-port="2"/>
		<edge from-layer="1405" from-port="3" to-layer="1409" to-port="0"/>
		<edge from-layer="1406" from-port="0" to-layer="1409" to-port="1"/>
		<edge from-layer="1407" from-port="0" to-layer="1409" to-port="2"/>
		<edge from-layer="1408" from-port="0" to-layer="1409" to-port="3"/>
		<edge from-layer="1409" from-port="4" to-layer="1411" to-port="0"/>
		<edge from-layer="1410" from-port="0" to-layer="1411" to-port="1"/>
		<edge from-layer="1411" from-port="2" to-layer="1414" to-port="0"/>
		<edge from-layer="1412" from-port="0" to-layer="1414" to-port="1"/>
		<edge from-layer="1413" from-port="0" to-layer="1414" to-port="2"/>
		<edge from-layer="1414" from-port="3" to-layer="1415" to-port="0"/>
		<edge from-layer="1401" from-port="2" to-layer="1416" to-port="0"/>
		<edge from-layer="1415" from-port="1" to-layer="1416" to-port="1"/>
		<edge from-layer="1416" from-port="2" to-layer="1417" to-port="0"/>
		<edge from-layer="1249" from-port="1" to-layer="1418" to-port="0"/>
		<edge from-layer="1291" from-port="1" to-layer="1418" to-port="1"/>
		<edge from-layer="1333" from-port="1" to-layer="1418" to-port="2"/>
		<edge from-layer="1375" from-port="1" to-layer="1418" to-port="3"/>
		<edge from-layer="1417" from-port="1" to-layer="1418" to-port="4"/>
		<edge from-layer="1418" from-port="5" to-layer="1420" to-port="0"/>
		<edge from-layer="1419" from-port="0" to-layer="1420" to-port="1"/>
		<edge from-layer="990" from-port="2" to-layer="1422" to-port="0"/>
		<edge from-layer="1421" from-port="0" to-layer="1422" to-port="1"/>
		<edge from-layer="990" from-port="2" to-layer="1424" to-port="0"/>
		<edge from-layer="1424" from-port="1" to-layer="1428" to-port="0"/>
		<edge from-layer="1425" from-port="0" to-layer="1428" to-port="1"/>
		<edge from-layer="1426" from-port="0" to-layer="1428" to-port="2"/>
		<edge from-layer="1427" from-port="0" to-layer="1428" to-port="3"/>
		<edge from-layer="1428" from-port="4" to-layer="1430" to-port="0"/>
		<edge from-layer="1429" from-port="0" to-layer="1430" to-port="1"/>
		<edge from-layer="1423" from-port="0" to-layer="1431" to-port="0"/>
		<edge from-layer="1430" from-port="2" to-layer="1431" to-port="1"/>
		<edge from-layer="1422" from-port="2" to-layer="1432" to-port="0"/>
		<edge from-layer="1431" from-port="2" to-layer="1432" to-port="1"/>
		<edge from-layer="1432" from-port="2" to-layer="1434" to-port="0"/>
		<edge from-layer="1433" from-port="0" to-layer="1434" to-port="1"/>
		<edge from-layer="1207" from-port="2" to-layer="1435" to-port="0"/>
		<edge from-layer="1420" from-port="2" to-layer="1435" to-port="1"/>
		<edge from-layer="1434" from-port="2" to-layer="1435" to-port="2"/>
		<edge from-layer="1435" from-port="3" to-layer="1436" to-port="0"/>
	</edges>
	<meta_data>
		<MO_version value="2021.3.0-2787-60059f2c755-releases/2021/3"/>
		<cli_parameters>
			<caffe_parser_path value="DIR"/>
			<data_type value="FP16"/>
			<disable_nhwc_to_nchw value="False"/>
			<disable_omitting_optional value="False"/>
			<disable_resnet_optimization value="False"/>
			<disable_weights_compression value="False"/>
			<enable_concat_optimization value="False"/>
			<enable_flattening_nested_params value="False"/>
			<enable_ssd_gluoncv value="False"/>
			<extensions value="DIR"/>
			<framework value="tf"/>
			<freeze_placeholder_with_value value="{}"/>
			<generate_deprecated_IR_V7 value="False"/>
			<input value="input_1"/>
			<input_model value="DIR/retinanet_resnet50_coco_best_v2.1.0.pb"/>
			<input_model_is_text value="False"/>
			<input_shape value="[1,1333,1333,3]"/>
			<k value="DIR/CustomLayersMapping.xml"/>
			<keep_shape_ops value="True"/>
			<legacy_mxnet_model value="False"/>
			<log_level value="ERROR"/>
			<mean_scale_values value="{'input_1': {'mean': array([103.939, 116.779, 123.68 ]), 'scale': None}}"/>
			<mean_values value="[103.939,116.779,123.68]"/>
			<model_name value="retinanet-tf"/>
			<output value="['filtered_detections/map/TensorArrayStack/TensorArrayGatherV3', 'filtered_detections/map/TensorArrayStack_1/TensorArrayGatherV3', 'filtered_detections/map/TensorArrayStack_2/TensorArrayGatherV3']"/>
			<output_dir value="DIR"/>
			<placeholder_data_types value="{}"/>
			<placeholder_shapes value="{'input_1': array([   1, 1333, 1333,    3])}"/>
			<progress value="False"/>
			<remove_memory value="False"/>
			<remove_output_softmax value="False"/>
			<reverse_input_channels value="False"/>
			<save_params_from_nd value="False"/>
			<scale_values value="()"/>
			<silent value="False"/>
			<static_shape value="False"/>
			<stream_output value="False"/>
			<transformations_config value="DIR/retinanet.json"/>
			<unset unset_cli_parameters="batch, counts, disable_fusing, disable_gfusing, finegrain_fusing, input_checkpoint, input_meta_graph, input_proto, input_symbol, mean_file, mean_file_offsets, move_to_preprocess, nd_prefix_name, pretrained_model_name, saved_model_dir, saved_model_tags, scale, tensorboard_logdir, tensorflow_custom_layer_libraries, tensorflow_custom_operations_config_update, tensorflow_object_detection_api_pipeline_config, tensorflow_use_custom_operations_config"/>
		</cli_parameters>
	</meta_data>
</net>
